notebooks/rhc_model_params.pt (torch, 9260 bytes, 8 tensors)

layers.0.weight f4 [20, 30]
00000000: 7399 cfbd fbb0 4a3e 8adf 19be 9496 09be
00000010: 8903 90bd d388 483d 7c11 6dbb 2442 62bd
00000020: d6ba 84bc 32e2 453d 8ae6 1ebe 0a0d 283e
00000030: 0981 8cbe 9ba2 f7bd 9822 9abd d59d dd3b
00000040: 6e4f 303e 0872 1c3c 817d fdbd 23d3 a2bd
00000050: accf 873d 4662 533d 9eb2 7f3d 6201 163d
00000060: d212 f1bc 1f3c a5bd c048 293e b0ea 89be
00000070: 793f a1be 13bb 15be 38c0 91bd b587 213e
00000080: c094 5fbe 88a1 c4be 1fb5 a7be 2d64 91bd
00000090: a488 53be feb4 203e 911c 903e 8f39 b53d
000000a0: 2051 1d3c d0b2 bfbd 6a0a fd3c db7a 8abe
000000b0: f27c 6dbe 48c3 c0bd 4cea eb3d 2904 543e
000000c0: 6550 39be f14e bf3d ae23 ef3d efdb 393e
000000d0: bc99 02be c7f8 8cbe edb3 fa3d 0429 dcbd
000000e0: 3e5a 0b3d bedf aebe 9c93 01be c04a ba3b
000000f0: 396a f0bd 8203 68be d224 55be 43ec 613d
00000100: 6644 cd3d d7c6 bcbc 0286 bebd 3946 2d3d
00000110: 59f7 e73d 9683 333e 9b12 10be e8e9 2abe
00000120: 7bf3 923d 4c97 47bd 948b 843e 3cf6 243e
00000130: d762 82bd c4e7 283d a096 893c daeb e9bd
00000140: 013c 2ebe a0c3 1abd b895 7abd 6a7e 3abe
00000150: c3f8 0b3d f3f4 fbbc 2120 f6bc 2729 abbd
00000160: aae7 04be 7a22 55be a712 893d 005b fbbb
00000170: 22d6 053e 51cf 8b3d 7309 39be 82ad 5fbe
00000180: fbbf 433e 7cab 25be f2c3 2dbd 474e d7bd
00000190: df56 be3e d3f2 fb3d f708 a3bd 4437 3cbd
000001a0: 0918 32be 5085 d3bd 2e8e 19bd b135 10be
000001b0: b7d1 24bc b3a8 94bd d520 99bd 5091 083c
000001c0: 3f8a e3bd fb79 863d f31e 003e 22a8 1dbe
000001d0: 221f 3abd a0f9 063c 7437 da3c 2224 793e
000001e0: cebb 923d d92d 333c 069f 41be 57ee b03d
000001f0: 60de 8cbe c635 55be ba65 5e3d d04c 353c
00000200: 8fce 82bd 16a2 7fbe 8091 74be 28da 1f3d
00000210: 4097 f3bd 2afd dfbd 24d5 053e c2c0 99bc
00000220: 7d68 c2bd 048b ac3d 9020 81bd 2446 5d3e
00000230: 25bf 8b3e b09e 823c 7132 963d e055 58bc
00000240: c292 edbe 884b 5c3c c031 c73c 0e03 4ebe
00000250: 00da b9bd 4022 763d 8ff6 2ebe a018 82be
00000260: 5052 0cbe 00d6 0239 8076 a9ba 05d0 9bbd
00000270: 1005 5b3e deb1 78be a6ec 0dbe 6e9c 97bd
00000280: f49a abbe 6bd4 12bd d7ba 82bd 95e9 83be
00000290: 5c4a 923d 2164 98be dbdb a9bd 80d3 2c3e
000002a0: ed55 87be ca6a 59be 020d 783d 6787 8cbe
000002b0: 62d2 283e d4c5 0abd 70b8 28be 482f 7e3c
000002c0: e896 acbc b7ea a6bd 4033 5dbd 7eb6 42bd
000002d0: 2fec f43d 2792 1cbd 64dc f83c be9c 18be
000002e0: bc3b 403e d47f 11bd b25b 13be 1d54 7c3d
000002f0: 2311 1abe 1c9a ca3d 5e70 143e c828 cc3c
00000300: 5246 6abe a21f bcbd 1422 ebbc 002c 04ba
00000310: 1c57 53be a990 7f3d afd1 debd ff85 82bb
00000320: fb11 bdbd 4108 f13d e252 0dbe f958 00be
00000330: 48f5 52be 52db 023e a89a 29be 522e 5d3d
00000340: 9a35 873d 4e63 bd3c 6123 b2ba bbd4 13bd
00000350: 49a7 bb3c f8c2 2abd 2625 a8ba 3182 fc3d
00000360: 065a 2fbd 9ffa c3bd 30f7 163e 37b9 17be
00000370: 68f3 b13d 9116 a53d 2312 873d a562 a93b
00000380: 9504 22be 8c03 433e 462a 05be cd47 54bd
00000390: 3ae8 7abd f815 02be ebe0 023b e333 1a3e
000003a0: 8e7a fb3d 74ed 863e 01ba e43d 18bd 7cbc
000003b0: 2240 3a3e 7c48 913d 2979 9ebd b4f3 5b3d
000003c0: abac 22bd 7642 0c3e 82bc 70bd 9f3c 9939
000003d0: a97f c03d 119a 8dbe ea0f 033d 1c99 1abe
000003e0: 00e9 243b 0249 febc e7ed c4bd 3261 9bbd
000003f0: ee98 1a3e 1aff 3e3d 43fd ddbd 8349 8abd
-0.1013669 0.19794075 -0.1502668 -0.13436347 -0.07031924 0.04895861 -0.0036173752 -0.055238858
-0.016202372 0.04831142 -0.15517631 0.16411224 -0.27442196 -0.120915614 -0.075261295 0.0067632
0.172178 0.009548672 -0.123774536 -0.079504274 0.06631407 0.051607393 0.062426202 0.036622413
-0.02942792 -0.08068108 0.16531658 -0.26936865 -0.31493738 -0.14622144 -0.07116741 0.15774424
-0.21834087 -0.3840449 -0.32755372 -0.07099185 -0.20657593 0.15694043 0.28146794 0.08848869
0.009601861 -0.09360278 0.030888755 -0.27046856 -0.23192194 -0.09412247 0.11519298 0.20704712
-0.18097074 0.09341229 0.11676727 0.18150304 -0.12753958 -0.27533552 0.12241349 -0.107500106
0.03402161 -0.34155077 -0.12653965 0.0056851804 -0.1173901 -0.22657588 -0.20814827 0.055156957
0.100228116 -0.023044033 -0.09302904 0.042303298 0.11326475 0.17530665 -0.14069597 -0.1669079
0.071753465 -0.048728272 0.2588774 0.16109556 -0.063665085 0.041236654 0.016795456 -0.11421938
-0.17015077 -0.03778422 -0.06117794 -0.18212286 0.034172785 -0.03075645 -0.030044617 -0.083574586
-0.12978998 -0.20813933 0.06693011 -0.00767076 0.13069966 0.06826652 -0.18070011 -0.21843532
0.19116203 -0.16178697 -0.042423196 -0.10512977 0.37175652 0.123021744 -0.07960694 -0.045951143
-0.17391981 -0.10328162 -0.03748911 -0.14082982 -0.010059766 -0.07258739 -0.07476965 0.008335426
-0.11110353 0.06566235 0.12511806 -0.15396169 -0.045439847 0.008238226 0.02663777 0.2433019
0.07164727 0.010936224 -0.18908319 0.0863921 -0.2751341 -0.20821294 0.054296233 0.011065677
-0.06387054 -0.24964175 -0.23883629 0.03902641 -0.11894083 -0.10936959 0.13069588 -0.018768672
-0.09492586 0.084249526 -0.06305039 0.21608788 0.2729427 0.015944809 0.0733384 -0.013204068
-0.4640103 0.013445742 0.024315715 -0.20118353 -0.09074783 0.060091257 -0.17086242 -0.25409412
-0.13703275 0.00012477487 -0.0012928993 -0.07608036 0.2138865 -0.24286601 -0.13859805 -0.074028835
-0.33516657 -0.03584711 -0.06383293 -0.25764146 0.07143089 -0.29763892 -0.08293887 0.16877556
-0.26432744 -0.21232143 0.06055928 -0.27447054 0.16486505 -0.03388007 -0.16476607 0.015514202
-0.021068051 -0.08150237 -0.054003954 -0.04753732 0.11959111 -0.03822532 0.030378528 -0.14903542
0.18772787 -0.035522297 -0.14390448 0.061603654 -0.150456 0.09892675 0.1449599 0.02492179
-0.22878388 -0.09185721 -0.028702773 -0.0005041957 -0.20638698 0.062393818 -0.10879838 -0.0039832587
-0.09231945 0.117691524 -0.13801149 -0.1253394 -0.2060138 0.12778977 -0.16562903 0.053999253
0.066020206 0.023118641 -0.0013590866 -0.036091547 0.022906916 -0.041689843 -0.0012828454 0.123295195
-0.042810462 -0.095692866 0.14742732 -0.14816748 0.08689004 0.08060945 0.06595256 0.00516923
-0.1582206 0.19044322 -0.13004407 -0.051826287 -0.061256625 -0.12703693 0.0019970487 0.15058856
0.12279235 0.26353037 0.1116829 -0.015425943 0.18188527 0.070939034 -0.07737953 0.05369921
-0.03971545 0.13697228 -0.058773525 0.000292276 0.09399349 -0.27656606 0.0319976 -0.15097469
0.0025163293 -0.031040672 -0.09615689 -0.07586898 0.150974 0.046630003 -0.108393215 -0.067523025

layers.0.bias f4 [20]
00000000: 97b6 1dbe f115 8dbd e094 00be 760a 313e
00000010: 98a9 a0bd 10b6 aabd b4e5 c33d 03f8 acbd
00000020: ef28 b8bd 97d3 82bc cdc2 8fbc 7aa2 11be
00000030: f6db 1b3e cff0 a4bd d3a1 843d 7a9c 223e
00000040: e791 bc3d ecc0 d33c a312 1f3e e60d c93c
-0.15401684 -0.068889506 -0.12556791 0.17289147 -0.078448474 -0.08335507 0.09565297 -0.08445742
-0.089921825 -0.015970035 -0.017548943 -0.14222136 0.15220627 -0.08053743 0.06476178 0.15880004
0.09207516 0.025848828 0.15534453 0.02454276

layers.1.weight f4 [20, 20]
00000000: 41df d3bd d96a e43d 2dc6 583d e0d6 94bc
00000010: 3896 27be 422f 81be cac0 483e 8a41 17bd
00000020: 05b7 50be 8c96 e9bd 58cc 0f3e c924 843e
00000030: 06ce 903d ba1f aa3c 8c46 88bc d570 3a3d
00000040: 9807 353c 3036 9ebe 7172 89be 4064 4abb
00000050: 9271 8a3d 9a19 8bbd 352c 923d 97b2 813c
00000060: d6da 7abe 46f9 5a3e 54f9 a8be 87dc ab3d
00000070: 7426 36be 8af0 81be 203c b13c e088 0d3c
00000080: 19e5 b33d 96ad 5cbd 47c5 b3bd 8035 59ba
00000090: 50c9 27be 429d 9c3e cb9f dabd 8f49 383e
000000a0: 1065 133e f224 1b3e 695d 283e 7e73 31be
000000b0: f328 9cbd d5a1 023f 5fdf 8d3d 8217 8c3e
000000c0: 1f07 8dbd 9d50 383e 2d7e 5dbe aecc 2b3e
000000d0: 98df 20bd 9c8b e1bc 873b 403e b9d1 923d
000000e0: 8692 883d 5e0f 953e 0d9a 813e a25a 24be
000000f0: 4cc3 ca3e 0874 18be e43e 9b3d 0834 b43d
00000100: 2257 cc3d fcab b43e 2d2c 11bd 32b3 3dbe
00000110: b7e8 e23d a9e4 2a3e a463 943e 72a5 73be
00000120: c25d 133e 2dd6 d23e 58f2 9e3c d822 9ebe
00000130: abbc 203e 141c 0c3d db08 1b3e 7a18 053d
00000140: a343 c33d 7c74 9f3d 71cd ccbd 799a 503d
00000150: 6b28 11be ee13 c6bc 43da 033e 9512 433e
00000160: 1f06 9dbe ae16 793e 12a0 923d 5425 53be
00000170: 4f18 cabe e15f d7bd 4802 a33e 646c 64bd
00000180: b8fd 363c 3e7a 243e fca3 1b3e 53e9 943e
00000190: 8ab3 393e 7aa4 29be e36d 833d 9e9d 8a3d
000001a0: 4963 8b3e f857 40bd a6a9 9e3e c8f2 aa3c
000001b0: 6193 0a3e 1d6e edbd 7964 32bd b546 c13e
000001c0: de25 4fbd 73cb a63c dc3a 83be 56ba 303f
000001d0: d6ff 03be 0c78 27be bc6a 0dbd 1e9a 84be
000001e0: 2ab1 35be 9fb2 e83d 54f8 8d3e 76ff b9be
000001f0: 912b 523e fdc2 443e a455 b23e 9438 f0bd
00000200: dbcc c8bc 5774 2ebe 106b a53c 05e5 4c3e
00000210: 0358 893e e3e9 403e d986 f73d b667 1a3e
00000220: 4b41 c6bd bcd6 2c3e 368e bebd 960e 1fbe
00000230: 10a9 093e 483e 093e c170 4ebe 3f2b d13d
00000240: d8bc a43d 2c69 83be e442 b2be 17a7 463e
00000250: f73c bebe bce7 0d3d 8f32 963d 37b3 cabe
00000260: ab0b fb3d 6f97 5d3e 3271 1e3d 37fb 11be
00000270: c60e 643e 6e4e 05bd e797 643e 59be 5bbe
00000280: 2602 4cbe 74a2 0c3e 4bf0 9cbd f837 e73d
00000290: 47cc a5be ef18 c0bd 5459 29be 3e0e 5fbe
000002a0: 0fb3 583e e1fb 213d 8c69 cc3d 085f 8b3e
000002b0: f842 593e 7e85 733d 24a2 943c 6a77 bcbd
000002c0: 00e6 78be 0815 0ebf 3a0c 833d 72fd 21bd
000002d0: 2bb9 cb3d 48be c3bd dd46 a03d 7588 83be
000002e0: 011a ce3d 27d4 4d3e 0eb0 633e 1e09 6bbe
000002f0: ab25 233d 6c72 013e 87b5 d6bd df37 9ebd
00000300: ca12 783d ca47 63bd 531e 173d 666f d3bd
00000310: aea1 40be 1f4c 923e 8ea9 ae3d b8c6 cf3d
00000320: f8c0 623e f0a3 013d 1bda f83d b2a0 133d
00000330: 8cc9 05bd b89a 73be 21a5 cfbd 2a9a ec3d
00000340: f33b 813e 800b 0a3c baf9 2a3d 5f74 1e3e
00000350: ac14 a53e 0c5a aabd 2dc1 3fbe e850 b93d
00000360: efb2 033e c832 2b3c 85d5 9abd 0613 2abd
00000370: e79b 25bd 5007 7c3e 52bd e63d b8fb ac3d
00000380: 9286 c73d 1595 1ebe fe77 493e 91f7 283e
00000390: bcdf e13d 5e35 133e 381e 053c b6aa b53e
000003a0: 59bc 96be 3f6e f3bd 0c2d 4a3e 5c47 47be
000003b0: 3f75 c5bd 80c7 39bb 412a e53e b76a 443e
000003c0: 27d1 ab3e da77 a43e e7c3 b03e def8 913e
000003d0: d063 613e 60b4 c3bd 006d 903e 28ab 4abe
000003e0: 6567 a9be f370 0c3f eea7 f43c b8a5 11be
000003f0: d6ef 64be 3e86 583e 173c bf3d a05a 2abe
-0.10345317 0.11153192 0.05292337 -0.018168867 -0.16365898 -0.25231367 0.19604793 -0.036927737
-0.20382316 -0.11405668 0.14042795 0.25809315 0.07070546 0.020767082 -0.016635202 0.04551776
0.011049174 -0.30900717 -0.26845124 -0.0030882508 0.06759943 -0.067919925 0.07137338 0.015832229
-0.24497542 0.21384153 -0.33002722 0.08391672 -0.17788106 -0.2537883 0.021635115 0.008638591
0.08783931 -0.053876482 -0.08777862 -0.0008285865 -0.16385388 0.30588728 -0.10675009 0.1799681
0.14394021 0.15150812 0.16441883 -0.17329213 -0.07624998 0.51028186 0.0692737 0.27361685
-0.06886124 0.17999502 -0.21630163 0.16777298 -0.039275736 -0.027532391 0.18772708 0.07168908
0.06668572 0.29113287 0.25312844 -0.16050199 0.39602125 -0.14888012 0.07580355 0.08798987
0.09977557 0.35287464 -0.03544252 -0.18525389 0.11079543 0.1668879 0.2898227 -0.23793581
0.14391235 0.41179028 0.019402668 -0.3088596 0.15696971 0.034206465 0.15140097 0.032494046
0.09534385 0.077858895 -0.10000122 0.050928567 -0.14175574 -0.024179425 0.12876229 0.19050057
-0.30668733 0.24325058 0.07159437 -0.20619708 -0.3947167 -0.10516334 0.31837678 -0.05576743
0.01116889 0.16062257 0.15199274 0.29084262 0.18134895 -0.16566649 0.064174436 0.06768344
0.27224186 -0.046958894 0.30988806 0.02086772 0.13532783 -0.11593268 -0.04355285 0.37749258
-0.050573222 0.020360684 -0.25630844 0.69034326 -0.12890562 -0.16354388 -0.034525618 -0.25898832
-0.17743364 0.11362194 0.27728522 -0.36327714 0.20524432 0.19215007 0.34830964 -0.117295414
-0.024511745 -0.17036568 0.020192653 0.20009239 0.2682496 0.1883922 0.12086267 0.15078625
-0.096804224 0.1687879 -0.09304468 -0.15532908 0.13443398 0.13402665 -0.201602 0.10213327
0.080438316 -0.25666177 -0.34816658 0.19399677 -0.37155887 0.034644827 0.07333862 -0.39589855
0.12258085 0.21639799 0.03868217 -0.14255987 0.2227126 -0.0325455 0.22323571 -0.2145933
-0.19922695 0.13733846 -0.0766302 0.11289972 -0.32382414 -0.09379756 -0.16537982 -0.21782777
0.21162055 0.03954685 0.09981069 0.2722094 0.21216953 0.05945348 0.01814372 -0.09202464
-0.24306488 -0.5550084 0.063988164 -0.039548345 0.09947427 -0.09557778 0.07826016 -0.25690046
0.100635536 0.20100461 0.22235128 -0.22952697 0.039830845 0.12641305 -0.10483842 -0.077255
0.060564794 -0.055488385 0.036894154 -0.10323982 -0.18811676 0.285737 0.08528434 0.101453245
0.22143924 0.031650484 0.12150975 0.036041923 -0.032662913 -0.2378949 -0.10138918 0.11552842
0.2524105 0.008425593 0.041742064 0.1547408 0.32242334 -0.08317956 -0.18726034 0.09048635
0.12861226 0.010449119 -0.07560257 -0.04152205 -0.040431883 0.24612164 0.11266579 0.08446449
0.09742464 -0.15486558 0.1967468 0.16500689 0.11029002 0.14375827 0.0081248805 0.35481805
-0.29440573 -0.11886262 0.19743747 -0.19460815 -0.096415035 -0.002834767 0.447588 0.19181333
0.33558008 0.3212269 0.34524462 0.28510183 0.22010732 -0.09555888 0.2820816 -0.19791853
-0.33086696 0.54859847 0.029865231 -0.14223373 -0.22357115 0.2114496 0.09337633 -0.16636133

layers.1.bias f4 [20]
00000000: 2865 023e 140d 0fbe 2adf 04be 6269 ca3d
00000010: 8f58 80bc d943 58be ca05 04be 62b6 b93d
00000020: 0c53 9bbd 480b 1e3e 3803 353e 243c 053d
00000030: 1bd9 90bc 5f5d 91bd 6e40 39bc 35b6 263d
00000040: cbe6 2ebe 02e5 5abd d375 3ebe 9488 0c3e
0.127339 -0.13969833 -0.12975755 0.098833814 -0.015667228 -0.21119632 -0.12892833 0.0906799
-0.07584199 0.15433991 0.17677009 0.032528058 -0.017681649 -0.07097887 -0.011306865 0.04070111
-0.17080228 -0.053441055 -0.18599634 0.13723975

layers.2.weight f4 [20, 20]
00000000: 8cd1 11be e2c9 9b3e 1280 2d3d 742f e6bc
00000010: 9f05 dc3d 628a 083d d18d 1e3e 4cfd 453e
00000020: 3e94 5cbe ced2 103e e51f 6d3d 1a00 4e3e
00000030: 78cf 773e d8b2 863e 2a59 503e e4a2 a5bc
00000040: c754 eebd 515b b13d 005a 3ebc 6ede 34be
00000050: 729f fcbd 29fe bc3d e41e 963e abc0 033f
00000060: 8046 d83b fe76 32bd 6c1f 973d 60bf 2cbc
00000070: c05e 4abc 5ae3 283e 21e2 813e 3e8d 9f3d
00000080: e805 323c bcbd 77be dafd 5f3e 9fad 63be
00000090: 0c58 5bbe 422c 413d 6f45 a93d bc68 b73c
000000a0: 3d5e 923e 685c 0b3e 642c 97bc a1a0 993d
000000b0: 4c8e b73d f2b5 213e 00ab 37bb c4d1 9bbc
000000c0: 48ac 61bc 899b 0fbe 8ca3 9c3c 1432 7b3e
000000d0: 93a2 b7bd 009a 743e 2b97 b5bd 1c4a 443d
000000e0: 13f0 9b3b 1f71 d7bd 383a c83d 14a4 9e3d
000000f0: c25e 61be 5282 623d a0a8 c03e bafa 283e
00000100: 82fe b3be 7fba d43d c967 9abd f0eb 1d3c
00000110: c0a0 01bd e05d 573b b91a 01bf a5d2 d4be
00000120: 03ec c5be 82e0 323e 795e d0be 5514 f0bd
00000130: 4967 e83c f862 1f3d 14b3 cabe 9882 92be
00000140: f811 833d ad56 d3bd e24e 1a3e 7136 703c
00000150: 58ea 57be 9ebb 00bd 7ecb 35bd 9ebb 1ebe
00000160: c564 403e 1eb8 f1be 1a86 2dbe 4b94 023e
00000170: da5b 6ebd 6b87 503e 6ed0 74bd 62ff 54be
00000180: 8086 a9bc ab7b cabd 6eb6 bd3e fd59 fbbd
00000190: 377f 3c3e e092 ca3d b088 bdbc 90b3 e8bd
000001a0: 974f dd3d 6dff e9bd 3d87 813e 84d5 8bbe
000001b0: c436 583e 0fc8 43be 862c 733e 11b5 e4bd
000001c0: 8122 b4bd 788c d33d 086a 8d3e 6937 de3d
000001d0: 2a89 4cbe c096 6cbb e600 803d 9842 453e
000001e0: 9f45 5cbe f703 90bd b014 5ebc f146 b53d
000001f0: e0bd ebbb 8713 27be aeaa 133d 3a10 d2bd
00000200: 6e7a 44be 4e29 69be e3f6 97bd 8089 c2bc
00000210: c4a3 223d a2d4 72bd 080f fe3c 60ee 7e3b
00000220: 6d48 20bd d30e bfbd bbf5 81be f03c 71be
00000230: 5757 24bd 1559 b8bd 3730 a53d c8ad 90bc
00000240: 59a0 e2be afd1 f13d c062 27bd cf6e 323e
00000250: 42b4 483e f3dd 96be 68f5 b83d b4cc 6c3e
00000260: 9bdc c93d 8f8d 3b3e ee18 c03d 3ac8 4dbd
00000270: aa44 0c3f 5f09 9dbd 531e ed3d a5b5 61bd
00000280: 38bc 473e d1f1 4d3e 81e9 543e ec63 9bbe
00000290: 1c76 17be 1641 dc3d 4422 6b3d 9399 ea3d
000002a0: cd5a a43d 39db 803e 0060 023a 1cf4 fcbd
000002b0: 60d6 ba3d c07c a23b 9ff2 9dbe ab41 d7be
000002c0: 82fa 483e f09d 573e e835 0ebe 361f 633d
000002d0: 4e06 293e 8eab 073e 44c9 41bd 3624 91be
000002e0: 08b2 9b3d 1ab0 593e bc79 1bbe c45f b1bd
000002f0: 8f7d 97bd aaba 0abe a8f8 3a3e e7e4 603e
00000300: b088 93be 9277 86be 6438 e43d 5917 c0be
00000310: 5780 e4bd aaae 553d b9a2 84be 0ad8 c9be
00000320: 433a 3ebe 5dad cd3d 14f5 a43d 9f28 bc3d
00000330: db60 ffbd 7681 51be b10a 24be 6d0e 9abe
00000340: 252b ae3d 0039 1f3e d982 033e 6f1a e63d
00000350: 4593 9a3e b6fa 4cbe fe72 e63d 88fc 70bc
00000360: 2878 313e 2fef f6bd 6ab0 193d 610c aa3d
00000370: e1b6 9dbe 99b6 fc3d e977 433e b544 80bd
00000380: da42 963d 643e cfbd ed0b 703d a6a9 633e
00000390: 4d28 aa3d e372 443e eab7 933d af38 933e
000003a0: b054 09bc f4f5 61be 70e4 43bd 4309 88bd
000003b0: 8072 d63b 60ff d73d 6a10 343d 3a66 553d
000003c0: 3e0b 2bbe 80eb 00be 33be 053d 582d 843e
000003d0: bc7d eb3d 9382 41be 3216 8abd 1c32 c63e
000003e0: dfc9 233d 4825 143e 1430 46bd f20c 1b3e
000003f0: d198 8fbd 262d 14be 72f4 28be d836 3fbe
-0.14240092 0.30427462 0.042358465 -0.0280988 0.1074326 0.033335097 0.15483786 0.19334906
-0.21540925 0.14142916 0.057891745 0.20117226 0.24200237 0.26308322 0.20346513 -0.020219274
-0.11637264 0.08659995 -0.011618137 -0.17662975 -0.12335099 0.09228165 0.29320443 0.51465863
0.006600201 -0.04357051 0.0737904 -0.010543674 -0.012351692 0.16492978 0.25367835 0.07790612
0.010865666 -0.24193472 0.2187418 -0.222342 -0.21420306 0.04716135 0.082651965 0.022388808
0.28587523 0.13609469 -0.018453784 0.07501341 0.08962688 0.15792063 -0.0028025508 -0.019020922
-0.013773985 -0.14024176 0.019120954 0.24530822 -0.089665554 0.23886871 -0.088667236 0.04792224
0.0047588437 -0.10519623 0.09776729 0.07746139 -0.22008803 0.055300064 0.3762865 0.16501895
-0.35155112 0.10387134 -0.07539327 0.009638771 -0.031647444 0.003286235 -0.504314 -0.4156696
-0.38656625 0.17468455 -0.40697077 -0.11722628 0.028369563 0.038912743 -0.3958975 -0.2861526
0.06399912 -0.103192665 0.15069154 0.014661417 -0.21085489 -0.031428926 -0.04438352 -0.15501258
0.1878844 -0.47210783 -0.16945687 0.12751882 -0.058193065 0.20364158 -0.059769087 -0.20800546
-0.020694017 -0.09886869 0.37053245 -0.12273023 0.18407904 0.098912954 -0.023136467 -0.11362374
0.10806196 -0.11425672 0.2529849 -0.27311337 0.21114641 -0.19119285 0.23747453 -0.11167348
-0.087956436 0.10329527 0.27619958 0.108504124 -0.19974199 -0.0036100596 0.06250171 0.19263685
-0.21510933 -0.07032006 -0.013554737 0.088514216 -0.0071942657 -0.16316043 0.036051445 -0.10257001
-0.19187328 -0.22769663 -0.07420137 -0.023747206 0.03970696 -0.059284814 0.031013027 0.0038899407
-0.03913157 -0.09328999 -0.2538279 -0.23558402 -0.040122356 -0.09001366 0.08065837 -0.01766099
-0.4426296 0.11807572 -0.04086566 0.17425083 0.19600013 -0.2946621 0.090311825 0.23124963
0.0985653 0.18315719 0.09379755 -0.05023978 0.54792273 -0.07667803 0.115780495 -0.05510487
0.19505394 0.20111777 0.207922 -0.30349672 -0.14791149 0.10754602 0.057405725 0.11455073
0.080251314 0.25167254 0.00049734116 -0.12351248 0.0912292 0.004958719 -0.30849168 -0.42042288
0.19626811 0.21056342 -0.13887751 0.055449687 0.16506311 0.13249037 -0.047311082 -0.2834794
0.07602316 0.21258584 -0.15183157 -0.08660844 -0.07396995 -0.13547769 0.18258917 0.2196232
-0.28815222 -0.262631 0.11143568 -0.37517813 -0.111572914 0.052168526 -0.25905398 -0.39422637
-0.18576913 0.10042832 0.080545574 0.09187435 -0.124696456 -0.20459542 -0.16019703 -0.3008913
0.08504323 0.15549088 0.12842883 0.112355106 0.30190483 -0.20017514 0.11252402 -0.014708646
0.17330992 -0.120573394 0.037521757 0.08303142 -0.30803588 0.12339515 0.19088711 -0.06263105
0.0733697 -0.10119322 0.058605123 0.22232684 0.08308468 0.19184451 0.07212813 0.28754184
-0.0083820075 -0.2206648 -0.047825277 -0.066423915 0.006544411 0.10546756 0.043960966 0.052099444
-0.16703507 -0.12589836 0.03265209 0.25815845 0.11498591 -0.18897466 -0.06742515 0.38710105
0.03998744 0.14467347 -0.048385695 0.15141657 -0.07011569 -0.14470348 -0.16499498 -0.18673265

layers.2.bias f4 [20]
00000000: f366 dabd a331 25bd bf0c 75bd 8e27 49be
00000010: 3a77 21bd 652f 8c3d e7f3 b9bd 1024 1cbc
00000020: ae32 8cba b0f1 63be 1166 263e 5cf5 383e
00000030: 841d 1c3e 9263 96bd 5d4e ef3d c087 56be
00000040: 7194 62bd 4047 3abd 46b9 a1bd 7156 c03d
-0.10664167 -0.04033054 -0.05982661 -0.19643995 -0.039420344 0.06844977 -0.09079724 -0.009530082
-0.0010696256 -0.22260165 0.16249873 0.18062347 0.15245634 -0.0734321 0.116848685 -0.20950222
-0.055317346 -0.045478106 -0.07896666 0.093914874

layers.3.weight f4 [2, 20]
00000000: 47a4 a6bf 173c 20bf 77ef aa3f cd7c 943e
00000010: c958 433f d77c 4f3f 61c7 073f 6fc1 f43d
00000020: d39c e73f 0ec7 6c3f 004a 30bf 522c 83be
00000030: 9da8 13bf 5478 343f eb2f b13f 95e8 63bf
00000040: 13ff 8cbf 52f7 01bf 9210 983f d39c 893f
00000050: 0704 c23f 46a1 5d3f e523 cbbe 7ee9 0dbe
00000060: ba97 5f3e 610a a9bf cb43 c63d 9ef0 a4be
00000070: 8002 d9be ff7a f63d 1f0d 593f 37e4 173f
00000080: 2f99 b53f ff6d 65bf 88bd 1fbf 38c4 aa3f
00000090: 6479 5a3f 5299 cf3e 32be 18bf 426b 8dbf
-1.3018883 -0.6259169 1.3354329 0.29001465 0.7630735 0.81049865 0.53038603 0.11950957
1.8094734 0.92491233 -0.68862915 -0.2561975 -0.5767916 0.70496106 1.3842748 -0.89026767
-1.1015342 -0.50768006 1.1880057 1.0750984 1.5157479 0.8657421 -0.39675823 -0.13858601
0.21835223 -1.3206292 0.09680899 -0.32214826 -0.4238472 0.120351784 0.84785646 0.59332603
1.4187373 -0.89620966 -0.62398577 1.3341131 0.8534148 0.40546662 -0.59665215 -1.1048357

layers.3.bias f4 [2]
00000000: 89b5 383e 2cf8 32be
0.18038 -0.17477483
