notebooks/rhc_model_params.pt (torch, 9260 bytes, 8 tensors)

layers.0.weight f4 [20, 30]
000000 73 99 cf bd 80 f4 06 bb 8a df 19 be 94 96 09 be
       -0.1013669 -0.002059251 -0.1502668 -0.13436347
000010 89 03 90 bd d3 88 48 3d 7c 11 6d bb 24 42 62 bd
       -0.07031924 0.04895861 -0.0036173752 -0.055238858
000020 d6 ba 84 bc 32 e2 45 3d 8a e6 1e be 0a 0d 28 3e
       -0.016202372 0.04831142 -0.15517631 0.16411224
000030 ac 9b 32 be 9b a2 f7 bd 98 22 9a bd d5 9d dd 3b
       -0.17442197 -0.120915614 -0.075261295 0.0067632
000040 0f d2 93 3d 08 72 1c 3c 81 7d fd bd 23 d3 a2 bd
       0.072178 0.009548672 -0.123774536 -0.079504274
000050 ac cf 87 3d 46 62 53 3d fc e6 19 bd 62 01 16 3d
       0.06631407 0.051607393 -0.0375738 0.036622413
000060 d2 12 f1 bc 1f 3c a5 bd c0 48 29 3e b0 ea 89 be
       -0.02942792 -0.08068108 0.16531658 -0.26936865
000070 79 3f a1 be 13 bb 15 be 38 c0 91 bd 0e f7 83 3e
       -0.31493738 -0.14622144 -0.07116741 0.25774425
000080 c0 94 5f be 55 6e 91 be d8 03 69 be 2d 64 91 bd
       -0.21834087 -0.2840449 -0.22755373 -0.07099185
000090 7c 44 da bd b2 8d 83 3e 91 1c 90 3e 2e 03 41 3e
       -0.106575936 0.25694042 0.28146794 0.18848869
0000a0 a9 22 b9 bd d0 b2 bf bd 32 8a 8d bd 4f 8f 2e be
       -0.09039814 -0.09360278 -0.06911124 -0.17046855
0000b0 8c 16 07 be 48 c3 c0 bd 8c 5b 5c 3e 29 04 54 3e
       -0.13192195 -0.09412247 0.21519297 0.20704712
0000c0 fd d3 a5 bd bc dd d7 bb ae 23 ef 3d ef db 39 3e
       -0.08097074 -0.006587712 0.11676727 0.18150304
0000d0 23 66 94 3d 28 8b 33 be ed b3 fa 3d 04 29 dc bd
       0.072460435 -0.17533553 0.12241349 -0.107500106
0000e0 3e 5a 0b 3d 16 59 77 be 9c 93 01 be 21 28 c1 bd
       0.03402161 -0.24155077 -0.12653965 -0.09431482
0000f0 39 6a f0 bd b0 b5 d9 bc d7 7c dd bd 43 ec 61 3d
       -0.1173901 -0.026575893 -0.10814827 0.055156957
000100 66 44 cd 3d d7 c6 bc bc 02 86 be bd 39 46 2d 3d
       0.100228116 -0.023044033 -0.09302904 0.042303298
000110 59 f7 e7 3d 96 83 33 3e 9b 12 10 be 04 07 89 bd
       0.11326475 0.17530665 -0.14069597 -0.06690791
000120 7b f3 92 3d 4e 02 52 3d 94 8b 84 3e 3c f6 24 3e
       0.071753465 0.05127173 0.2588774 0.16109556
000130 d7 62 82 bd dc 92 22 be a0 96 89 3c da eb e9 bd
       -0.063665085 -0.15876335 0.016795456 -0.11421938
000140 01 3c 2e be fa d5 7e 3d e2 03 1f 3d 6a 7e 3a be
       -0.17015077 0.062215783 0.038822062 -0.18212286
000150 97 64 09 3e f3 f4 fb bc 21 20 f6 bc 27 29 ab bd
       0.13417278 -0.03075645 -0.030044617 -0.083574586
000160 aa e7 04 be 7a 22 55 be a7 12 89 3d 00 5b fb bb
       -0.12978998 -0.20813933 0.06693011 -0.00767076
000170 22 d6 05 3e 51 cf 8b 3d 73 09 39 be 82 ad 5f be
       0.13069966 0.06826652 -0.18070011 -0.21843532
000180 fb bf 43 3e 7c ab 25 be 63 d7 11 be 47 4e d7 bd
       0.19116203 -0.16178697 -0.1424232 -0.10512977
000190 ac 23 8b 3e d3 f2 fb 3d a4 28 8f be 44 37 3c bd
       0.27175653 0.123021744 -0.27960694 -0.045951143
0001a0 09 18 32 be 60 10 57 bb f2 c9 0c be 2a 3d 27 bd
       -0.17391981 -0.0032816157 -0.13748911 -0.040829815
0001b0 b7 d1 24 bc 6c 90 e0 3c d5 20 99 bd f7 de dd 3d
       -0.010059766 0.027412616 -0.07476965 0.10833543
0001c0 3f 8a e3 bd 64 a3 29 3e f3 1e 00 3e 22 a8 1d be
       -0.11110353 0.16566235 0.12511806 -0.15396169
0001d0 22 1f 3a bd a0 f9 06 3c 55 ad 01 3e 22 24 79 3e
       -0.045439847 0.008238226 0.12663777 0.2433019
0001e0 ce bb 92 3d d9 2d 33 3c 06 9f 41 be 57 ee b0 3d
       0.07164727 0.010936224 -0.18908319 0.0863921
0001f0 e5 df 99 bd c6 35 55 be e0 33 3b bd 33 23 b6 bd
       -0.075134076 -0.20821294 -0.04570377 -0.088934325
000200 8f ce 82 bd 16 a2 7f be 1a 2b 0e be 28 da 1f 3d
       -0.06387054 -0.24964175 -0.1388363 0.03902641
000210 40 97 f3 bd 2a fd df bd ec 75 fb 3c c2 c0 99 bc
       -0.11894083 -0.10936959 0.030695878 -0.018768672
000220 7d 68 c2 bd 23 07 81 bc 7a 58 17 3d 24 46 5d 3e
       -0.09492586 -0.015750473 0.036949612 0.21608788
000230 e4 17 31 3e b0 9e 82 3c 71 32 96 3d df 55 58 bc
       0.1729427 0.015944809 0.0733384 -0.013204067
000240 8f 5f ba be 5c 43 b1 bd c0 31 c7 3c 0e 03 4e be
       -0.3640103 -0.08655426 0.024315715 -0.20118353
000250 00 da b9 bd 40 22 76 3d 8f f6 2e be a0 18 82 be
       -0.09074783 0.060091257 -0.17086242 -0.25409412
000260 a8 af 17 bd 00 d6 02 39 80 76 a9 ba 05 d0 9b bd
       -0.037032753 0.00012477487 -0.0012928993 -0.07608036
000270 30 84 63 3c de b1 78 be 00 19 1e bd 6e 9c 97 bd
       0.013886496 -0.24286601 -0.03859806 -0.074028835
000280 f4 9a ab be 81 1b 0b be d2 c3 27 be c4 6c 21 be
       -0.33516657 -0.1358471 -0.16383293 -0.15764147
000290 c6 09 ea bc ea f6 c7 bd 54 54 3b be 32 da 8c 3d
       -0.028569113 -0.09763892 -0.18293887 0.06877555
0002a0 73 45 28 be c7 08 e6 bd 02 0d 78 3d 68 a8 32 be
       -0.16432743 -0.11232143 0.06055928 -0.17447054
0002b0 62 d2 28 3e dc 17 09 be 70 b8 28 be 48 2f 7e 3c
       0.16486505 -0.13388008 -0.16476607 0.015514202
0002c0 e8 96 ac bc c2 db 39 be 5a 66 3c 3d 06 14 17 be
       -0.021068051 -0.18150237 0.045996048 -0.14753732
0002d0 2f ec f4 3d 27 92 1c bd 64 dc f8 3c 5e d9 48 bd
       0.11959111 -0.03822532 0.030378528 -0.049035423
0002e0 bc 3b 40 3e d4 7f 11 bd b2 5b 13 be 7d 45 1d bd
       0.18772787 -0.035522297 -0.14390448 -0.038396347
0002f0 23 11 1a be 40 ac 8c ba 5e 70 14 3e ff d6 ff 3d
       -0.150456 -0.0010732487 0.1449599 0.12492179
000300 eb df 03 be a2 1f bc bd 14 22 eb bc 00 2c 04 ba
       -0.12878387 -0.09185721 -0.028702773 -0.0005041957
000310 1c 57 53 be a9 90 7f 3d 3d cf 55 be ff 85 82 bb
       -0.20638698 0.062393818 -0.20879836 -0.0039832587
000320 27 ad fb 3b 41 08 f1 3d e2 52 0d be f9 58 00 be
       0.0076805535 0.117691524 -0.13801149 -0.1253394
000330 48 f5 52 be 52 db 02 3e a8 9a 29 be 52 2e 5d 3d
       -0.2060138 0.12778977 -0.16562903 0.053999253
000340 9a 35 87 3d 4e 63 bd 3c 61 23 b2 ba bb d4 13 bd
       0.066020206 0.023118641 -0.0013590866 -0.036091547
000350 fb e2 9d bd f8 c2 2a bd 26 25 a8 ba 91 d5 be 3c
       -0.07709309 -0.041689843 -0.0012828454 0.023295196
000360 06 5a 2f bd 9f fa c3 bd 30 f7 16 3e 37 b9 17 be
       -0.042810462 -0.095692866 0.14742732 -0.14816748
000370 25 cb 56 bc f0 d8 9e bc 78 ef 29 3e a5 62 a9 3b
       -0.013109957 -0.019390553 0.16595256 0.00516923
000380 95 04 22 be 8c 03 43 3e 46 2a 05 be cd 47 54 bd
       -0.1582206 0.19044322 -0.13004407 -0.051826287
000390 39 e8 7a bd 3b 1d 31 3e c6 b5 c8 bd e3 33 1a 3e
       -0.06125662 0.17296307 -0.098002955 0.15058856
0003a0 8e 7a fb 3d 37 1c 82 3d a0 69 3f 3c 70 64 ec bd
       0.12279235 0.06353038 0.011682898 -0.115425944
0003b0 22 40 3a 3e 44 11 ee bc 29 79 9e bd b4 f3 5b 3d
       0.18188527 -0.029060967 -0.07737953 0.05369921
0003c0 ab ac 22 bd 76 42 0c 3e 82 bc 70 bd 9f 3c 99 39
       -0.03971545 0.13697228 -0.058773525 0.000292276
0003d0 40 d2 c4 bb 11 9a 8d be ea 0f 03 3d c1 7f 80 be
       -0.006006509 -0.27656606 0.0319976 -0.25097468
0003e0 00 e9 24 3b 02 49 fe bc e7 ed c4 bd 32 61 9b bd
       0.0025163293 -0.031040672 -0.09615689 -0.07586898
0003f0 ee 98 1a 3e 80 9a 5a bd 43 fd dd bd 83 49 8a bd
       0.150974 -0.05337 -0.108393215 -0.067523025

layers.0.bias f4 [20]
000000 97 b6 1d be f1 15 8d bd e0 94 00 be 76 0a 31 3e
       -0.15401684 -0.068889506 -0.12556791 0.17289147
000010 98 a9 a0 bd 10 b6 aa bd b4 e5 c3 3d 03 f8 ac bd
       -0.078448474 -0.08335507 0.09565297 -0.08445742
000020 ef 28 b8 bd 97 d3 82 bc cd c2 8f bc 7a a2 11 be
       -0.089921825 -0.015970035 -0.017548943 -0.14222136
000030 f6 db 1b 3e cf f0 a4 bd d3 a1 84 3d 7a 9c 22 3e
       0.15220627 -0.08053743 0.06476178 0.15880004
000040 e7 91 bc 3d ec c0 d3 3c a3 12 1f 3e e6 0d c9 3c
       0.09207516 0.025848828 0.15534453 0.02454276

layers.1.weight f4 [20, 20]
000000 41 df d3 bd d9 6a e4 3d f2 97 1c 3e 85 02 f2 bd
       -0.10345317 0.11153192 0.15292338 -0.11816887
000010 38 96 27 be 42 2f 81 be cb c6 ca 3e 08 2c 81 3d
       -0.16365898 -0.25231367 0.39604792 0.063072264
000020 3d a1 d4 bd 8c 96 e9 bd 58 cc 0f 3e 2b e3 21 3e
       -0.10382316 -0.11405668 0.14042795 0.15809314
000030 06 ce 90 3d ba 1f aa 3c 8c 46 88 bc d5 70 3a 3d
       0.07070546 0.020767082 -0.016635202 0.04551776
000040 db 2b b6 bd 30 36 9e be 71 72 89 be 40 64 4a bb
       -0.088950835 -0.30900717 -0.26845124 -0.0030882508
000050 76 b6 04 bd 9a 19 8b bd 35 2c 92 3d 97 b2 81 3c
       -0.03240057 -0.067919925 0.07137338 0.015832229
000060 d6 da 7a be 46 f9 5a 3e dc 25 05 be aa 54 3c 3e
       -0.24497542 0.21384153 -0.13002723 0.18391672
000070 6d 46 8e be 19 51 5c bd 51 f4 62 3e 3f f4 43 be
       -0.27788106 -0.05378828 0.22163512 -0.19136141
000080 f4 58 40 3e cb 91 1d be 0a 49 40 be 80 35 59 ba
       0.18783933 -0.15387647 -0.18777862 -0.0008285865
000090 d2 c5 82 bd 42 9d 9c 3e ca 9f da bd 8f 49 38 3e
       -0.063853875 0.30588728 -0.106750086 0.1799681
0000a0 10 65 13 3e 6e 9f 46 bd 05 ee 83 3d f2 ec 8b be
       0.14394021 -0.048491888 0.06441883 -0.27329212
0000b0 68 8f c2 3c 77 10 d2 3e 5f df 8d 3d 9d c8 31 3e
       0.023750022 0.41028187 0.0692737 0.17361684
0000c0 1f 07 8d bd 9d 50 38 3e 8d 2f ee bd ae cc 2b 3e
       -0.06886124 0.17999502 -0.11630163 0.16777298
0000d0 98 df 20 bd 9c 8b e1 bc 87 3b 40 3e b9 d1 92 3d
       -0.039275736 -0.027532391 0.18772708 0.07168908
0000e0 aa af 2a 3e 5e 0f 95 3e 0d 9a 81 3e a2 5a 24 be
       0.16668573 0.29113287 0.25312844 -0.16050199
0000f0 4c c3 ca 3e 08 74 18 be e4 3e 9b 3d 08 34 b4 3d
       0.39602125 -0.14888012 0.07580355 0.08798987
000100 22 57 cc 3d 2f df e7 3e 2d 2c 11 bd 32 b3 3d be
       0.09977557 0.45287463 -0.03544252 -0.18525389
000110 b7 e8 e2 3d a9 e4 2a 3e f6 f4 b7 3d 72 a5 73 be
       0.11079543 0.1668879 0.089822695 -0.23793581
000120 7a 48 e3 3e fa a2 9f 3e 58 f2 9e 3c d8 22 9e be
       0.44391233 0.3117903 0.019402668 -0.3088596
000130 12 59 69 3d 14 1c 0c 3d d2 89 52 3d 7a 18 05 3d
       0.05696971 0.034206465 0.051400967 0.032494046
000140 a0 92 98 bb 7c 74 9f 3d 71 cd cc bd 79 9a 50 3d
       -0.004656151 0.077858895 -0.10000122 0.050928567
000150 6b 28 11 be ee 13 c6 bc 43 da 03 3e 95 12 43 3e
       -0.14175574 -0.024179425 0.12876229 0.19050057
000160 1f 06 9d be ae 16 79 3e 12 a0 92 3d 54 25 53 be
       -0.30668733 0.24325058 0.07159437 -0.20619708
000170 1c e5 96 be 58 16 52 be 48 02 a3 3e 64 6c 64 bd
       -0.29471672 -0.20516336 0.31837678 -0.05576743
000180 bc fd 36 3c 52 70 85 3e 56 f6 54 3d 53 e9 94 3e
       0.011168893 0.26062256 0.051992737 0.29084262
000190 8a b3 39 3e 7a a4 29 be e3 6d 83 3d 9e 9d 8a 3d
       0.18134895 -0.16566649 0.064174436 0.06768344
0001a0 2c 60 30 3e f8 57 40 bd a6 a9 9e 3e c8 f2 aa 3c
       0.17224187 -0.046958894 0.30988806 0.02086772
0001b0 61 93 0a 3e 75 1d 5d be 21 35 67 3d b5 46 c1 3e
       0.13532783 -0.21593268 0.056447152 0.37749258
0001c0 de 2f 1a be aa 7f f6 3d aa a3 66 bd 45 0e fb 3e
       -0.15057322 0.12036069 -0.056308426 0.49034324
0001d0 ef 99 91 3d 39 ef 86 be 6f 17 86 3d ba 9d 71 bd
       0.07109439 -0.26354387 0.06547438 -0.05898831
0001e0 2a b1 35 be 90 2e 5f 3c 41 8a 35 3e 73 97 81 bd
       -0.17743364 0.013621941 0.17728521 -0.06327715
0001f0 45 0f c2 bd fd c2 44 3e e2 44 7e 3e 94 38 f0 bd
       -0.09475569 0.19215007 0.24830964 -0.117295414
000200 db cc c8 bc 57 74 2e be 10 6b a5 3c 00 c0 c1 38
       -0.024511745 -0.17036568 0.020192653 9.23872e-05
000210 9f 49 2c 3e e3 e9 40 3e d9 86 f7 3d b6 67 1a 3e
       0.16824959 0.1883922 0.12086267 0.15078625
000220 40 70 51 3b bc d6 2c 3e 36 8e be bd 96 0e 1f be
       0.0031957775 0.1687879 -0.09304468 -0.15532908
000230 10 a9 09 3e 48 3e 09 3e c1 70 4e be 3f 2b d1 3d
       0.13443398 0.13402665 -0.201602 0.10213327
000240 d8 bc a4 3d 2c 69 83 be fb b8 17 be 17 a7 46 3e
       0.080438316 -0.25666177 -0.14816658 0.19399677
000250 f7 3c be be bc e7 0d 3d 8f 32 96 3d 37 b3 ca be
       -0.37155887 0.034644827 0.07333862 -0.39589855
000260 ab 0b fb 3d 11 62 ee 3d 32 71 1e 3d 37 fb 11 be
       0.12258085 0.116397984 0.03868217 -0.14255987
000270 96 3a a5 3e 6e 4e 05 bd e7 97 64 3e 59 be 5b be
       0.3227126 -0.0325455 0.22323571 -0.2145933
000280 26 02 4c be 74 a2 0c 3e 4b f0 9c bd 5b 59 53 3c
       -0.19922695 0.13733846 -0.0766302 0.012899722
000290 47 cc a5 be ef 18 c0 bd 54 59 29 be 52 ba a2 be
       -0.32382414 -0.09379756 -0.16537982 -0.31782776
0002a0 22 64 3e 3c e1 fb 21 3d 8c 69 cc 3d 08 5f 8b 3e
       0.011620553 0.03954685 0.09981069 0.2722094
0002b0 f8 42 59 3e 1c 14 26 bd 44 a4 a7 bd 1c a2 44 be
       0.21216953 -0.04054652 -0.08185628 -0.19202465
0002c0 99 7f 12 be aa c3 b5 be 84 ec 27 3e c3 e5 0e be
       -0.14306487 -0.35500842 0.16398817 -0.13954835
0002d0 2b b9 cb 3d 48 be c3 bd dd 46 a0 3d 75 88 83 be
       0.09947427 -0.09557778 0.07826016 -0.25690046
0002e0 de 99 26 3a 27 d4 4d 3e 0d b0 63 3e b8 a2 04 be
       0.00063553255 0.20100461 0.22235127 -0.12952697
0002f0 d1 2f 0f 3e 6c 72 01 3e 87 b5 d6 bd df 37 9e bd
       0.13983084 0.12641305 -0.10483842 -0.077255
000300 ca 12 78 3d 59 38 1f be 53 1e 17 3d 66 6f d3 bd
       0.060564794 -0.15548839 0.036894154 -0.10323982
000310 90 76 b4 bd 1f 4c 92 3e f6 19 71 bc b8 c6 cf 3d
       -0.088116765 0.285737 -0.014715662 0.101453245
000320 23 b5 f8 3d d5 fa 8b bd 1b da f8 3d b2 a0 13 3d
       0.12143924 -0.06834952 0.12150975 0.036041923
000330 8c c9 05 bd 52 34 0d be 21 a5 cf bd 70 ff ac bd
       -0.032662913 -0.1378949 -0.10138918 -0.08447158
000340 80 11 1c 3e 5d 8b bb bd d1 f8 ae 3e 5f 74 1e 3e
       0.1524105 -0.09157441 0.34174207 0.1547408
000350 20 b1 b7 3c 8e 3f ef 3d 2d c1 3f be 28 df 1b bc
       0.022423327 0.11682044 -0.18726034 -0.009513654
000360 45 64 ea 3c c8 32 2b 3c 85 d5 9a bd 06 13 2a bd
       0.028612265 0.010449119 -0.07560257 -0.04152205
000370 e7 9b 25 bd 50 07 7c 3e 52 bd e6 3d b8 fb ac 3d
       -0.040431883 0.24612164 0.11266579 0.08446449
000380 92 86 c7 3d bb ba 60 bd fe 77 49 3e 91 f7 28 3e
       0.09742464 -0.05486558 0.1967468 0.16500689
000390 44 56 57 3e 5e 35 13 3e 06 29 bc bd a0 88 1e 3e
       0.21029001 0.14375827 -0.09187512 0.15481806
0003a0 cf 41 d8 3d 40 6e f3 bd 40 f0 27 bb 5c 47 47 be
       0.10559427 -0.11886263 -0.0025625378 -0.19460815
0003b0 c1 f1 6a 3b 09 9b d2 bd 0e f7 b1 3e a1 08 bc 3d
       0.0035849663 -0.10283477 0.347588 0.09181333
0003c0 e8 3b 71 3e 4e 89 62 3e e7 c3 b0 3e de f8 91 3e
       0.23558009 0.2212269 0.34524462 0.28510183
0003d0 d0 63 61 3e 60 b4 c3 bd 00 6d 90 3e 82 89 c8 bd
       0.22010732 -0.09555888 0.2820816 -0.097918525
0003e0 b7 dc fc bc b2 ae e5 3e d2 a2 8f bd b8 a5 11 be
       -0.030866964 0.44859844 -0.070134774 -0.14223373
0003f0 df 12 fd bd ae 3f e4 3d 17 3c bf 3d a0 5a 2a be
       -0.12357115 0.111449584 0.09337633 -0.16636133

layers.1.bias f4 [20]
000000 28 65 02 3e 14 0d 0f be 2a df 04 be 62 69 ca 3d
       0.127339 -0.13969833 -0.12975755 0.098833814
000010 8f 58 80 bc d9 43 58 be ca 05 04 be 62 b6 b9 3d
       -0.015667228 -0.21119632 -0.12892833 0.0906799
000020 0c 53 9b bd 48 0b 1e 3e 38 03 35 3e 24 3c 05 3d
       -0.07584199 0.15433991 0.17677009 0.032528058
000030 1b d9 90 bc 5f 5d 91 bd 6e 40 39 bc 35 b6 26 3d
       -0.017681649 -0.07097887 -0.011306865 0.04070111
000040 cb e6 2e be 02 e5 5a bd d3 75 3e be 94 88 0c 3e
       -0.17080228 -0.053441055 -0.18599634 0.13723975

layers.2.weight f4 [20, 20]
000000 f2 37 78 be 15 fd ce 3e 12 80 2d 3d 74 2f e6 bc
       -0.24240091 0.4042746 0.042358465 -0.0280988
000010 36 69 54 3e 62 8a 08 3d d1 8d 1e 3e cc 2d bf 3d
       0.2074326 0.033335097 0.15483786 0.09334907
000020 3e 94 5c be ce d2 10 3e e5 1f 6d 3d 67 33 cf 3d
       -0.21540925 0.14142916 0.057891745 0.10117226
000030 11 69 11 3e 49 ff 26 3e 2a 59 50 3e e4 a2 a5 bc
       0.14200236 0.16308321 0.20346513 -0.020219274
000040 e8 1f 86 bc 51 5b b1 3d 2d e7 40 3e 6e de 34 be
       -0.016372636 0.08659995 0.18838187 -0.17662975
000050 72 9f fc bd f1 a5 95 3e 62 d7 45 3e 45 5a 1d 3f
       -0.12335099 0.29228166 0.19320443 0.61465865
000060 80 46 d8 3b 8c 6a 79 be 84 b5 d6 bc 60 bf 2c bc
       0.006600201 -0.2435705 -0.0262096 -0.010543674
000070 a5 18 e6 bd 5a e3 28 3e dc 5d 1d 3e 3e 8d 9f 3d
       -0.11235169 0.16492978 0.15367836 0.07790612
000080 8a 0d e3 3d 55 57 11 be da fd 5f 3e 9f ad 63 be
       0.11086567 -0.14193471 0.2187418 -0.222342
000090 0c 58 5b be 59 6d 58 bd 1e 09 3b 3e 9e f2 9e bd
       -0.21420306 -0.052838657 0.18265197 -0.07761119
0000a0 3d 5e 92 3e 08 d8 13 3d 64 2c 97 bc b0 b0 cc bc
       0.28587523 0.036094695 -0.018453784 -0.024986595
0000b0 4c 8e b7 3d f2 b5 21 3e 00 ab 37 bb 3e c1 f3 bd
       0.08962688 0.15792063 -0.0028025508 -0.119020924
0000c0 56 02 e9 bd 89 9b 0f be 8c a3 9c 3c 14 32 7b 3e
       -0.11377399 -0.14024176 0.019120954 0.24530822
0000d0 d0 51 29 3c 99 33 0e 3e 2b 97 b5 bd 7e 4f 55 bd
       0.010334447 0.1388687 -0.088667236 -0.052077763
0000e0 13 f0 9b 3b ae 42 9c be 9c 52 12 bb 14 a4 9e 3d
       0.0047588437 -0.30519623 -0.002232707 0.07746139
0000f0 a2 8f a4 bc 52 82 62 3d a0 a8 c0 3e ba fa 28 3e
       -0.02008802 0.055300064 0.3762865 0.16501895
000100 82 fe b3 be 80 ba d4 3d c9 67 9a bd 4b 8a e0 3d
       -0.35155112 0.103871346 -0.07539327 0.10963877
000110 6d fc 8b 3d e0 5d 57 3b 0b cf 9b be a5 d2 d4 be
       0.06835256 0.003286235 -0.304314 -0.4156696
000120 3a 0b 3f be 38 f4 98 3d 79 5e d0 be 55 14 f0 bd
       -0.18656626 0.07468456 -0.40697077 -0.11722628
000130 49 67 e8 3c a2 36 7a bd 14 b3 ca be ca 9e 3e be
       0.028369563 -0.06108726 -0.3958975 -0.1861526
000140 f8 11 83 3d ad 56 d3 bd 51 e4 18 be 71 36 70 3c
       0.06399912 -0.103192665 -0.14930846 0.014661417
000150 58 ea 57 be fe 6e 8c 3d 46 d9 13 be 02 91 82 be
       -0.21085489 0.068571076 -0.14438352 -0.25501257
000160 c5 64 40 3e 0a 3d 30 be 98 35 fa 3c 4b 94 02 3e
       0.1878844 -0.17210785 0.030543134 0.12751882
000170 da 5b 6e bd 6b 87 50 3e 6e d0 74 bd 62 ff 54 be
       -0.058193065 0.20364158 -0.059769087 -0.20800546
000180 80 86 a9 bc 80 48 94 3a 6e b6 bd 3e fd 59 fb bd
       -0.020694017 0.0011313111 0.37053245 -0.12273023
000190 a1 31 ac 3d e0 92 ca 3d b0 88 bd bc 90 b3 e8 bd
       0.084079035 0.098912954 -0.023136467 -0.11362374
0001a0 97 4f dd 3d 1d 66 5b be b7 06 59 3d a1 44 31 be
       0.10806196 -0.21425672 0.05298492 -0.17311336
0001b0 ba a0 e3 3d 3b 17 95 be 86 2c 73 3e 11 b5 e4 bd
       0.111146405 -0.29119286 0.23747453 -0.11167348
0001c0 a7 77 40 be 78 8c d3 3d 3b 9d c0 3e 69 37 de 3d
       -0.18795644 0.10329527 0.37619957 0.108504124
0001d0 86 45 cc bd 72 1a 49 3e e6 00 80 3d 98 42 45 3e
       -0.09974198 0.19638994 0.06250171 0.19263685
0001e0 71 be eb bd 54 23 f3 3c 39 0a b1 3d df 09 41 3e
       -0.11510933 0.029679932 0.08644528 0.18851422
0001f0 de 6e 45 3e 87 13 27 be 76 f7 82 bd a7 6d 28 bb
       0.19280574 -0.16316043 -0.06394856 -0.0025700124
000200 10 28 bc bd 4e 29 69 be e3 f6 97 bd 9d 7b 34 3e
       -0.09187329 -0.22769663 -0.07420137 0.1762528
000210 58 0f 0f 3e a2 d4 72 bd 08 0f fe 3c 60 ee 7e 3b
       0.13970697 -0.059284814 0.031013027 0.0038899407
000220 6d 48 20 bd a5 df db 3b 0f 85 1d be 8e c0 11 bd
       -0.03913157 0.00671001 -0.15382789 -0.035584025
000230 57 57 24 bd 15 59 b8 bd 82 fe 38 3e 86 e2 5e be
       -0.040122356 -0.09001366 0.18065837 -0.217661
000240 7f 0d 12 be af d1 f1 3d da 36 72 3d cf 6e 32 3e
       -0.14262961 0.11807572 0.05913434 0.17425083
000250 b7 9b c4 3d f3 dd 96 be 68 f5 b8 3d b4 cc 6c 3e
       0.09600013 -0.2946621 0.090311825 0.23124963
000260 80 0c bc ba 8f 8d 3b 3e ee 18 c0 3d 75 d8 19 be
       -0.0014346987 0.18315719 0.09379755 -0.15023978
000270 20 56 e5 3e 5f 09 9d bd 90 f5 5c 3e a5 b5 61 bd
       0.4479227 -0.07667803 0.2157805 -0.05510487
000280 38 bc 47 3e 1c 2c 9a 3e 40 cb 01 3c 72 61 50 be
       0.19505394 0.30111778 0.007921994 -0.20349672
000290 1c 76 17 be 16 41 dc 3d 56 77 2e bd 30 b3 5b 3e
       -0.14791149 0.10754602 -0.042594276 0.21455073
0002a0 cd 5a a4 3d 0c 50 1b 3e 0d c8 cb bd 1c f4 fc bd
       0.080251314 0.15167254 -0.09950266 -0.12351248
0002b0 60 d6 ba 3d 01 a5 c2 bd d7 7e 55 be 78 0e a4 be
       0.0912292 -0.09504128 -0.20849167 -0.3204229
0002c0 74 b0 97 3e f0 9d 57 3e e8 35 0e be 34 2e 1f 3e
       0.2962681 0.21056342 -0.13887751 0.15544969
0002d0 5a b6 87 3e 8e ab 07 3e 44 c9 41 bd 34 56 87 3c
       0.2650631 0.13249037 -0.047311082 0.016520597
0002e0 08 b2 9b 3d 40 0b a0 3e 11 f0 80 be 48 68 5b 3c
       0.07602316 0.31258583 -0.25183156 0.013391562
0002f0 6c 74 67 3e 0e 51 11 bd a8 f8 3a 3e a7 a5 a3 3e
       0.22603005 -0.03547769 0.18258917 0.3196232
000300 fa aa 40 be 92 77 86 be 98 82 58 3e 59 17 c0 be
       -0.18815222 -0.262631 0.21143568 -0.37517813
000310 50 9c 3d bc aa ae 55 3d 27 54 10 3e 48 e3 46 be
       -0.011572912 0.052168526 0.14094602 -0.19422638
000320 43 3a 3e be 15 3d 4d 3e 14 f5 a4 3d 9f 28 bc 3d
       -0.18576913 0.20042832 0.080545574 0.09187435
000330 db 60 ff bd 76 81 51 be b1 0a 24 be 1a a0 ce bd
       -0.124696456 -0.20459542 -0.16019703 -0.10089131
000340 f9 7b 3d 3e 66 4a 63 3d d9 82 03 3e 6f 1a e6 3d
       0.18504323 0.055490874 0.12842883 0.112355106
000350 7a b3 d0 3d b5 fa 4c be fe 72 e6 3d 3c ad ae 3d
       0.101904824 -0.20017512 0.11252402 0.085291356
000360 47 ef 8b 3e 2f ef f6 bd 81 d2 0c 3e b0 01 8b bc
       0.27330992 -0.120573394 0.13752176 -0.016968578
000370 e1 b6 9d be 99 b6 fc 3d 28 ef 94 3e b5 44 80 bd
       -0.30803588 0.12339515 0.29088712 -0.06263105
000380 d4 87 31 3e 64 3e cf bd ed 0b 70 3d a6 a9 63 3e
       0.1733697 -0.10119322 0.058605123 0.22232684
000390 8d 7a 3b 3e e3 72 44 3e 8b 53 e4 bc af 38 93 3e
       0.18308468 0.19184451 -0.027871868 0.28754184
0003a0 b0 54 09 bc f4 f5 61 be 70 e4 43 bd 43 09 88 bd
       -0.0083820075 -0.2206648 -0.047825277 -0.066423915
0003b0 f5 33 da 3d 60 ff d7 3d 81 6a 13 3e f5 bf 1b 3e
       0.10654441 0.10546756 0.14396097 0.15209945
0003c0 d2 b8 88 be ce 28 d4 bc 33 be 05 3d 58 2d 84 3e
       -0.26703507 -0.025898363 0.03265209 0.25815845
0003d0 78 87 75 3c 93 82 41 be 32 16 8a bd e9 fe 92 3e
       0.014985912 -0.18897466 -0.06742515 0.28710106
0003e0 bb cf 75 bd 48 25 14 3e c8 40 1b 3e f2 0c 1b 3e
       -0.06001256 0.14467347 0.15161431 0.15141657
0003f0 f0 cf f4 3c 26 2d 14 be 72 f4 28 be 9f ce 92 be
       0.029884309 -0.14470348 -0.16499498 -0.28673264

layers.2.bias f4 [20]
000000 f3 66 da bd a3 31 25 bd bf 0c 75 bd 8e 27 49 be
       -0.10664167 -0.04033054 -0.05982661 -0.19643995
000010 3a 77 21 bd 65 2f 8c 3d e7 f3 b9 bd 10 24 1c bc
       -0.039420344 0.06844977 -0.09079724 -0.009530082
000020 ae 32 8c ba b0 f1 63 be 11 66 26 3e 5c f5 38 3e
       -0.0010696256 -0.22260165 0.16249873 0.18062347
000030 84 1d 1c 3e 92 63 96 bd 5d 4e ef 3d c0 87 56 be
       0.15245634 -0.0734321 0.116848685 -0.20950222
000040 71 94 62 bd 40 47 3a bd 46 b9 a1 bd 71 56 c0 3d
       -0.055317346 -0.045478106 -0.07896666 0.093914874

layers.3.weight f4 [2, 20]
000000 e0 3d 80 bf c7 11 da be ed de 55 3f 90 99 23 bc
       -1.0018883 -0.42591688 0.8354328 -0.009985343
000010 98 df 94 3f 71 16 69 3f 0a 3e bd be 94 fe 04 3f
       1.1630735 0.9104987 -0.36961395 0.51950955
000020 05 d0 9a 3f da 93 39 3f 66 fa c6 be 5e 2f 66 bd
       1.2094733 0.7249123 -0.38862914 -0.056197517
000030 d3 ea c0 be 0c 57 cf 3e b8 fc bd 3f 95 e8 63 bf
       -0.37679157 0.404961 1.4842749 -0.89026767
000040 46 32 80 bf 14 aa 54 be 5f dd a4 3f 0c a0 79 3f
       -1.0015342 -0.20768005 1.2880057 0.9750984
000050 d3 d0 8e 3f e0 3a 77 3f fe 7a 49 be b6 49 25 3e
       1.1157478 0.9657421 -0.19675824 0.161414
000060 58 67 c3 be 61 0a a9 bf e1 2e 7f 3f 1c 45 1f bf
       -0.38164783 -1.3206292 0.99680907 -0.6221483
000070 28 5b c3 bc 40 61 c2 be eb d9 25 3f 6b 17 4b 3f
       -0.023847178 -0.3796482 0.6478564 0.7933261
000080 c9 32 cf 3f 31 a1 18 bf bc f0 52 bf d1 5d 84 3f
       1.6187373 -0.5962096 -0.8239858 1.034113
000090 64 79 5a 3f e3 fe d7 3d ca e2 97 be 42 6b 8d bf
       0.8534148 0.10546663 -0.29665214 -1.1048357

layers.3.bias f4 [2]
000000 89 b5 38 3e 2c f8 32 be
       0.18038 -0.17477483
