notebooks/rhc_model_params.pt (torch, 9260 bytes, 8 tensors)

layers.0.weight f4 [20, 30]
000000 1f 5f ec 3d 10 43 33 be 4f 02 33 be 5d b0 58 be
       0.115415804 -0.17506051 -0.1748135 -0.21161027
000010 de 65 3c 3d 58 69 0c 3e 4c 58 0e be e6 db d0 3c
       0.045995586 0.1371206 -0.1390087 0.02549548
000020 85 4e b8 3d 71 b7 f7 bd b9 33 05 be 10 7b 06 3e
       0.089993514 -0.120955355 -0.13008012 0.13132882
000030 73 d6 91 3d b3 dd 93 3d e7 c6 f6 3d 65 3f 0f 3e
       0.07120981 0.0722002 0.12049656 0.13989027
000040 9d af 4c 3d 72 93 3a be 2d 23 0a 3e 34 56 98 be
       0.049972165 -0.18220308 0.13489981 -0.29753268
000050 8a d2 88 be 86 cd 80 be 49 f0 36 3e b8 9d 66 be
       -0.2672313 -0.25156802 0.17865099 -0.22521102
000060 39 4f 0c be f8 94 86 bd e4 5f ca bd d1 20 35 be
       -0.13702096 -0.06571382 -0.09881571 -0.176883
000070 94 70 13 be e9 92 54 be 72 ad b0 bd 58 d6 1f 3d
       -0.14398414 -0.20759167 -0.08626832 0.039022774
000080 27 86 8b be b8 90 14 be b6 eb 81 bd 80 73 bc 3c
       -0.27250788 -0.14508331 -0.063437864 0.023004293
000090 3e 63 2d be ac 1c d2 3d cc 07 fb 3d 7e 8b 99 b8
       -0.16932389 0.10259375 0.122573465 -7.321591e-05
0000a0 cc 07 ff ba 44 05 34 3e f7 06 fb 3d f3 bb 29 3d
       -0.001945728 0.17580134 0.12257188 0.041439008
0000b0 29 18 bc bd a2 de 24 3d 8f 27 56 bc c1 85 3f be
       -0.09184296 0.04025138 -0.013070955 -0.18703367
0000c0 0c 3f 0d 3d e1 24 d7 bd b6 f6 a8 bd 9d 08 61 bd
       0.034483954 -0.10505081 -0.082501814 -0.054939855
0000d0 cd 97 58 3d 3c 4a 1a bd b2 4c 86 3d 84 2a f3 bd
       0.052879144 -0.03766845 0.06557597 -0.118733436
0000e0 45 4b db bd 46 d5 29 be 94 d9 47 bd e6 e4 d2 bd
       -0.10707716 -0.16585264 -0.048791483 -0.10297565
0000f0 ea 3f 9f 3d 9f 5e 43 3d f9 fe 53 bd b0 56 32 be
       0.077758625 0.04769766 -0.051756833 -0.17415881
000100 aa 4c 7d 3e db cd 03 3e f2 41 18 3c e4 c6 22 bd
       0.24736276 0.12871496 0.009293066 -0.039740458
000110 5b e9 1f be fa e0 30 be b0 3f 13 be 97 d0 d7 3d
       -0.15616362 -0.17273322 -0.14379764 0.10537832
000120 70 04 05 3e 61 24 8b 3e fc 56 2c be ec 54 4e be
       0.12989974 0.27176192 -0.16830057 -0.20149583
000130 d8 68 86 be cb b9 e2 3c 58 f0 64 3d d5 2e 1c be
       -0.26251864 0.027676484 0.055893272 -0.1525224
000140 75 d9 14 be 87 9e e7 3d 3e f3 c4 bd 9f b7 33 3e
       -0.14536078 0.113095336 -0.09616707 0.17550515
000150 fc 51 35 be f4 3b 8a 3d 1d 05 b4 bd a4 f8 b0 bd
       -0.17707056 0.067497164 -0.08790038 -0.086411744
000160 20 97 17 3e e3 e7 39 bd 17 be 1d be 80 36 3d bc
       0.14803743 -0.04538716 -0.15404545 -0.011548638
000170 7b 4f f4 3d b1 75 99 be 5c b5 58 be 2c 3c d8 bc
       0.11929222 -0.29972604 -0.21162933 -0.02639588
000180 c1 b7 92 bd c2 0d 81 be 32 e8 26 3e a6 fd 8c bd
       -0.071639545 -0.2520581 0.16299513 -0.06884317
000190 38 5d 78 be cf 86 9f bd b3 b3 54 bd ff 18 5c bd
       -0.2425431 -0.077893846 -0.051929187 -0.053734776
0001a0 34 ea 57 be 90 4b 51 3e d0 74 d5 3b fe 83 11 3e
       -0.21085435 0.20438981 0.0065141693 0.14210507
0001b0 e4 fa 6c bd 57 6a 13 3e c4 6f 21 be 2d dc 95 3c
       -0.057856455 0.14396034 -0.15765291 0.018293465
0001c0 d5 36 58 be 26 a3 ee bc 9a 28 1d be 3e 53 7f 3e
       -0.21114667 -0.02913053 -0.1534752 0.24934098
0001d0 14 7e e8 bd 2c ee ab bd 44 96 7d bc ac 55 49 be
       -0.113521725 -0.08395037 -0.015477721 -0.19661587
0001e0 a0 9c 15 be e4 68 b5 bc 9e f4 35 be 9c ad 2a be
       -0.14610529 -0.022144742 -0.17769095 -0.16667789
0001f0 91 12 4d bd 28 9c 14 3e e4 a8 56 3d 61 70 d9 3d
       -0.050066534 0.14512694 0.05240716 0.10617138
000200 c0 46 ea bc 8b 66 1c bd 42 2a a4 bd 3c 5f 67 3e
       -0.02859819 -0.03818373 -0.080158725 0.22594923
000210 43 65 d0 3d 69 5f bc bd 19 b2 1c be d1 c8 cf bd
       0.10175564 -0.091978855 -0.15302314 -0.101457246
000220 78 0c 21 bd e4 1b 7d be 83 99 42 3d 9e 5a 11 3e
       -0.03931853 -0.2471767 0.04750968 0.14194724
000230 5d 33 20 3c bf 45 54 3b ce 5b b5 bd a7 d8 16 be
       0.009777871 0.0032390205 -0.08855401 -0.14731084
000240 6e 14 83 3e e6 14 6b 3d c9 f7 7a bd 2a ba 8f be
       0.25601524 0.057392977 -0.061271463 -0.2807172
000250 c3 05 ac bd 81 9d 8d bd 40 ed ee 3a 40 31 44 bc
       -0.083995365 -0.06914807 0.0018228665 -0.011974633
000260 97 83 9e 3d 58 76 69 bd e1 b3 a2 bc f2 7c 60 3d
       0.077399425 -0.056997627 -0.019861164 0.054806657
000270 68 6b 11 be a2 39 24 3d c6 67 a3 3d 22 94 5b 3e
       -0.14201128 0.040094025 0.079787776 0.21443227
000280 ad 79 62 be 10 38 fb 3d 8c 9d bd bc 45 d6 08 3e
       -0.22116728 0.122665524 -0.023146413 0.13362987
000290 43 fb f5 3d a1 f8 e8 bd 83 5b e0 3d f5 2f c0 be
       0.12010815 -0.11375547 0.109549545 -0.37536588
0002a0 55 4c 16 3e be 70 35 3d b0 96 29 be aa a6 c1 3d
       0.14677556 0.044296972 -0.16561389 0.09455617
0002b0 d0 80 13 bc 28 f8 0e 3e f6 43 71 be 57 8b c9 bd
       -0.009002879 0.13961852 -0.23561081 -0.0984103
0002c0 3a 69 a4 bd de 66 a9 bd a5 64 cd 3d b9 f9 c1 bd
       -0.08027883 -0.082715735 0.10028962 -0.09471459
0002d0 d0 d9 54 3d 64 d1 0d 3e 18 ab 34 be e7 f3 9d 3d
       0.051965535 0.13849407 -0.17643392 0.07712536
0002e0 bf e9 20 3e ae 25 82 3e 12 eb a0 3d fd d8 14 be
       0.15714167 0.25419372 0.07857336 -0.145359
0002f0 32 3a cc bd 67 1c 31 be d3 16 26 3e 64 93 bd bd
       -0.099720374 -0.17295991 0.16219644 -0.09256628
000300 4c 92 ac 3c ad be fe 3d b1 f1 fa bc 89 1e 89 bd
       0.021065854 0.12438712 -0.030632826 -0.06695277
000310 f0 45 db 3c 38 3d af bc f3 0c 14 be 6b df 1e 3e
       0.026766747 -0.021391496 -0.14458065 0.15514915
000320 50 9f dc 3d dc cb 77 3e 20 c8 c6 bc ca d8 0d be
       0.10772574 0.2419886 -0.024265349 -0.1385223
000330 ef e2 2b 3b 08 d2 91 bb c1 7a d9 bd fd a0 7b 3d
       0.0026227792 -0.0044500865 -0.106191166 0.061432827
000340 8f 00 89 be 1f ff f9 3d 51 22 7f bd 5a 58 f6 bd
       -0.2675824 0.122068636 -0.062288586 -0.120285705
000350 00 bb 5a 3d 80 6e 10 3e b7 7c 26 3e da 71 43 3e
       0.053400993 0.14104652 0.16258512 0.190864
000360 8c 4e 7c 3d 00 5e e7 3b 92 d2 09 bd 56 e3 10 3d
       0.061598346 0.007060766 -0.03364808 0.035373054
000370 30 ed ac 3e 13 78 20 3e 97 12 f4 3d 74 c3 61 3d
       0.3377471 0.15670805 0.11917608 0.05511804
000380 c7 9e b9 3d e6 9a 1c be c9 c0 d3 3d c3 12 78 3d
       0.090634875 -0.15293464 0.10339505 0.060564768
000390 5e 4a df bd 91 c8 0e be 06 2f b3 bd 40 a1 15 3d
       -0.10902856 -0.13943698 -0.087492034 0.036530733
0003a0 da 6b a5 3d 06 d7 f3 3d e9 43 88 3e a5 77 23 be
       0.08077212 0.11906247 0.2661431 -0.1596361
0003b0 25 0c 30 be 17 f3 8b 3d 97 da 25 3e 54 96 1c 3d
       -0.17192133 0.06833475 0.16196667 0.0382293
0003c0 e6 e6 a9 bd 90 f2 83 bd 89 d8 11 3d 8e 10 36 3e
       -0.082959935 -0.064427495 0.035606895 0.17779753
0003d0 07 66 b1 3d aa ef bb 3d 14 08 e0 bc a8 6e 12 be
       0.08662038 0.09176572 -0.027347602 -0.14300025
0003e0 94 b2 8c 3d 9a 98 10 be c7 2e 60 bd a6 c3 6e 3e
       0.068699986 -0.14120713 -0.05473211 0.23316821
0003f0 cd a2 e9 3d fb 61 39 3e d9 66 8a 3c cc 36 5f bd
       0.11408005 0.18103783 0.016894745 -0.054495618

layers.0.bias f4 [20]
000000 e7 77 3a be 71 1c 0d 3e 2a 85 2d bd cf 3f 37 3e
       -0.18209802 0.13780381 -0.042363323 0.17895435
000010 99 16 04 be ba 2f 03 3e 9e 93 08 3d 9f c9 2e be
       -0.12899245 0.12811175 0.033343904 -0.170691
000020 82 6a 2b 3e 00 0d 12 bb f2 44 06 be 42 46 1b 3e
       0.16739848 -0.002228558 -0.13112238 0.1516352
000030 1f 9d d5 bd 9f 0c 2a bc 1c 68 e8 bd 2b 80 b8 3d
       -0.10430359 -0.010378986 -0.11347982 0.09008821
000040 df c1 27 3e 7f bc 37 bd a2 ea 3b bd 08 72 16 3e
       0.1638255 -0.0448575 -0.04587806 0.14691937

layers.1.weight f4 [20, 20]
000000 c8 02 b4 bc 6d 89 88 3d a8 7e 09 3c 46 9b 10 3e
       -0.021973982 0.06666837 0.008392014 0.14121732
000010 8d 18 f8 3d 13 50 97 bb d4 18 5d be 96 23 30 be
       0.12114058 -0.0046177 -0.21591502 -0.17201075
000020 6f 0a 3b 3e 1c 4b 89 bd 90 62 02 be a4 53 0b be
       0.18265699 -0.06703779 -0.12732911 -0.13606125
000030 a5 50 0d 3e d8 70 d9 bc a6 70 68 3d 60 4f b7 3b
       0.13800295 -0.026543066 0.056748055 0.005594179
000040 aa 97 0a 3d eb 5a a2 be e6 dd 64 bd 08 c3 4c be
       0.033836044 -0.3170999 -0.05587568 -0.19996274
000050 c4 3b 3e 3e 7e 28 9b 3e 36 78 6d bd 57 b9 46 bd
       0.18577486 0.3030433 -0.05797597 -0.048516598
000060 8f 0f 36 be a6 d1 28 bd f8 db 71 bd db 05 98 bd
       -0.17779373 -0.04121556 -0.05904767 -0.07422992
000070 d0 7f b8 3c 83 ad 2b 3e ae 57 90 bd 0b 0a 1a 3e
       0.022521883 0.16765408 -0.070479736 0.15042894
000080 56 1e 59 3e 49 5b 2d 3e 02 cc 10 bd c1 e7 f4 3d
       0.21202978 0.16929354 -0.035350807 0.11958266
000090 77 5b f3 3d 33 25 98 3e 60 06 4b bb 2e aa e6 3d
       0.1188268 0.2971588 -0.0030979142 0.11262928
0000a0 34 bc 4b 3d 48 53 17 bc 1e bc 5d be 3b c5 29 be
       0.04974003 -0.009236164 -0.21653792 -0.16579144
0000b0 1f 8b 60 3d 0f 6a 06 be 6d be 14 3e a9 0f 5e be
       0.054820176 -0.13126396 0.14525767 -0.21685661
0000c0 d0 4c d1 3c 4c 2a 95 3c 40 1a 05 3c 7c 3b 0d 3d
       0.025549322 0.018208645 0.008123934 0.034480557
0000d0 ff b2 09 3d 7c 13 61 3e 7e 2b 3b 3e 46 04 58 be
       0.03361797 0.21980089 0.1827831 -0.2109538
0000e0 9e fb 9a bc de d5 b8 bd 01 88 e2 3d aa e7 2c 3e
       -0.018918809 -0.09025167 0.11061097 0.16885248
0000f0 8f ad be 3d c0 75 d1 3b 48 ba 8d 3e 4b 3d a5 3d
       0.093104474 0.0063922107 0.27681184 0.08068331
000100 1d 65 0c 3e 6c 78 e8 bc 76 9e 3f 3e 88 ff 43 3c
       0.13710447 -0.028377734 0.18712792 0.011962779
000110 5a 90 9c 3e 16 8d 9f 3e fe a7 1c bd f1 8b 43 be
       0.30578882 0.31162328 -0.038246147 -0.19096352
000120 c0 aa df 3b c3 00 ca bd 0d 71 c4 bd 40 6f 15 bb
       0.006825775 -0.098634265 -0.09591875 -0.0022801906
000130 47 e7 98 bd 9a 91 73 be 92 f6 ee 3d c4 67 3e bd
       -0.07465988 -0.23786011 0.11668123 -0.046485677
000140 e9 b5 c2 3d 90 f6 e7 bc c2 c5 c9 3d 9b 0d 56 be
       0.09507353 -0.028315812 0.098521724 -0.20903628
000150 10 04 81 bd f8 00 fd bd 7e 57 11 bd c8 8b 28 bd
       -0.06299603 -0.123537004 -0.03548383 -0.04114893
000160 5b 47 e8 3d 5f 23 e2 bd 5b d5 e9 bd 46 3a 3d be
       0.11341735 -0.11041903 -0.114176475 -0.18479261
000170 fd 75 ea bc 20 5d 8c bc 99 ca 8f 3b c2 42 17 3e
       -0.028620714 -0.01713425 0.004388165 0.1477156
000180 76 b5 30 3d 37 88 9f 3e 85 28 17 be ac 48 06 3e
       0.043141805 0.3115861 -0.1476155 0.1311366
000190 14 a2 fe 3b d2 af 78 3d 8f 62 52 3e fe 0d 7e 3d
       0.007770786 0.06071455 0.2054541 0.062025063
0001a0 d1 86 5c 3e 2f bb d5 bd 23 cc f6 bd 16 ee 06 be
       0.21535803 -0.10436093 -0.12050655 -0.1317676
0001b0 66 21 07 3e 00 c2 81 3b c0 e1 08 3e 42 11 4d be
       0.13196334 0.003959894 0.13367367 -0.20026115
0001c0 20 fd 03 be 86 ea 47 bd aa 72 2c be b4 09 9d 3e
       -0.12889528 -0.048807643 -0.16840616 0.30671465
0001d0 07 63 8e 3e 3f 5c f4 3d 09 75 bc 3d 65 fd a3 bd
       0.27809927 0.11931657 0.0920201 -0.080073155
0001e0 62 66 07 3e 5e 7f 44 bc c1 5f 5a 3e 64 a1 08 be
       0.1322265 -0.011993257 0.2132559 -0.13342816
0001f0 07 61 3d 3d bc 8d 3a 3e f2 bf 52 3e 1f 17 04 3e
       0.04623511 0.1821813 0.20581034 0.12899445
000200 70 dc b2 bd 78 6b ec 3c 91 2d a3 3d 60 c7 5a bb
       -0.08733451 0.028859839 0.079676755 -0.0033382997
000210 97 75 05 be c3 54 13 3e 54 c3 97 be f3 19 27 be
       -0.13033138 0.14387803 -0.2964121 -0.16318493
000220 aa 5b f3 bd 05 07 57 bd e3 c5 d2 bd fb 36 f8 3d
       -0.11882718 -0.05249693 -0.1029165 0.12119862
000230 b8 63 b3 bc ac 9b a1 3d d4 47 57 be a8 83 9d 3d
       -0.021898136 0.0789102 -0.21023494 0.07691127
000240 0d db 02 3e 67 da ec bd a3 7f 49 be b7 17 5d 3e
       0.12778874 -0.115650944 -0.19677596 0.21591078
000250 80 36 ca 3b 22 a7 3c be d8 e8 f4 bd 11 b8 0e bd
       0.0061710477 -0.18423131 -0.11958474 -0.03484351
000260 f5 fa dd 3d 2a 04 30 3e 3f 7a 5c 3e cb a7 df bd
       0.10838882 0.17189088 0.21531008 -0.10920676
000270 77 48 d3 3d ab 6c a5 3b 89 e5 91 3e ea 86 72 3e
       0.10316556 0.0050483546 0.28495434 0.23684278
000280 84 de ed 3c 88 03 39 be 4a ae 1d be 56 11 78 bd
       0.029036768 -0.18067753 -0.15398517 -0.060563408
000290 28 c0 47 3e 62 3b de 3c 2e be 2a 3d 38 19 88 3c
       0.19506896 0.027127925 0.041685276 0.016613588
0002a0 30 eb a5 3c 84 2d c5 3e ad 2b 40 3d 41 9e c6 be
       0.020253748 0.38511288 0.046916652 -0.38792613
0002b0 14 69 0c be d0 29 9a bd 59 30 f9 3d fa 1a 0b bd
       -0.13711959 -0.07527506 0.12167425 -0.033961274
0002c0 ed 1c 53 3d 36 0f 3f be d1 1f a5 3d 71 2a 9b be
       0.051541258 -0.18658146 0.08062709 -0.30305818
0002d0 61 9a 34 3e 24 19 22 be 43 79 45 be 6e 4c c5 bd
       0.17637016 -0.15829903 -0.19284539 -0.096337184
0002e0 55 40 81 bd 26 d5 61 3e 81 12 c6 bd b5 e1 9b bd
       -0.063110985 0.22053966 -0.09671498 -0.076114096
0002f0 8e 33 38 3e 61 3f ad bd 76 f5 59 3e 7c 9e 87 3e
       0.17988417 -0.08459354 0.21285042 0.264881
000300 7e b1 d1 3d f0 4a 03 be 54 eb ae bd e8 b0 3b 3d
       0.10238932 -0.12821555 -0.08540979 0.045823008
000310 c1 aa ae 3e b2 9c 87 3d 4e 6a 1d bc c8 bc 93 3e
       0.3411465 0.06621684 -0.009607865 0.28854966
000320 b7 16 2e 3e 75 d6 a2 bc 66 ab 07 be 0d 65 2d 3e
       0.17000853 -0.019877652 -0.13248977 0.16933079
000330 f8 e5 0e 3e 32 38 9a 3e a6 ab 9b bb 84 b3 11 be
       0.13954914 0.30121 -0.0047506867 -0.14228636
000340 2d d6 d5 3d 8a 2c d0 bd b0 e2 0d 3c fb 01 2b 3d
       0.104412414 -0.10164745 0.008660004 0.041749936
000350 5c d0 93 3d b6 fb 5f bd 2f 3c 9f 3d 63 66 66 bd
       0.07217476 -0.05468341 0.07775151 -0.056249987
000360 c8 23 7c 3e f7 0c 71 bd f0 49 35 3e 18 d5 75 3e
       0.24623024 -0.058850255 0.17703986 0.2400707
000370 a0 c4 7e 3b 9d 19 5b be ab 04 1f bd a1 1f 96 be
       0.0038874522 -0.2139649 -0.03882281 -0.29321006
000380 53 ee d2 bd 78 ab 93 be 84 5b b4 3d 61 a2 ae bd
       -0.10299363 -0.28841758 0.08806518 -0.08527065
000390 9a 31 2f be 49 a5 09 be d0 67 94 be 40 24 5a 3b
       -0.17108765 -0.13441958 -0.28985453 0.0033285767
0003a0 8c ae b5 bc 64 f4 45 3e 5c 60 a5 bd 6c a2 0a bc
       -0.022177957 0.19331509 -0.0807502 -0.008461576
0003b0 02 03 31 be 38 d9 97 3e f6 a4 d7 be 59 e2 9a 3d
       -0.17286304 0.29657912 -0.42118043 0.07562704
0003c0 33 9b b0 bd 01 59 44 3e 8c b3 ef 3d 1e 1d 23 bc
       -0.08623352 0.19174577 0.11704168 -0.009955673
0003d0 40 a4 2d bc 22 e0 63 3e d4 13 db bc 07 62 e6 3d
       -0.010598242 0.22253469 -0.026742853 0.11249166
0003e0 69 cd 62 3e 9a 01 66 3e 9a 8c 96 be c7 fa e2 3d
       0.2214867 0.22461548 -0.29404145 0.11082988
0003f0 b9 c8 f9 3c b5 ca e9 bc dc b2 66 3d 3a 65 5a 3e
       0.03049122 -0.028539041 0.056322917 0.21327677

layers.1.bias f4 [20]
000000 e0 b2 49 3e 8b 2b 32 be 9a e8 f9 bd 55 88 48 be
       0.19697142 -0.17399423 -0.12202568 -0.19583257
000010 04 76 3b bd 59 6b 5c be 4e 8e 19 be 1d f8 52 3d
       -0.045766845 -0.21525325 -0.14995691 0.05150615
000020 eb f8 50 3e 2c 2c 45 3e 80 d1 4b 3e ee 8e c1 bc
       0.20407455 0.19255131 0.19904137 -0.023627724
000030 76 b6 46 bd 63 ba 2d 3e 04 26 66 3d af be 0f be
       -0.048513852 0.16965632 0.0561886 -0.14037584
000040 b3 ec 48 3e 7d f9 64 bd 94 3e 07 3e da a1 04 3e
       0.19621544 -0.055901993 0.13207465 0.12952366

layers.2.weight f4 [20, 20]
000000 c6 c6 28 3e ba 91 3f 3e b0 36 17 3d 32 0f 09 be
       0.16482076 0.18707934 0.03691739 -0.13384703
000010 5b e1 f6 3d c1 9c 0c 3d f9 2b 9c 3d 82 ce 29 3e
       0.12054702 0.03432918 0.076255746 0.16582683
000020 1c 00 fa bd 9f dc 13 be 06 e9 14 3e 9a a2 0c be
       -0.12207052 -0.14439629 0.14542016 -0.13733903
000030 24 a0 5f 3e e6 65 93 be d7 12 f5 bd 63 7c e1 be
       0.21838433 -0.2878868 -0.11966484 -0.44040212
000040 84 79 1e 3e 4a b3 26 bd be 22 3a be 18 a5 21 bd
       0.15476042 -0.040698327 -0.18177316 -0.039464086
000050 c2 1b 04 be f0 f8 62 3e 2e e2 b1 3e 5e 0b 33 3e
       -0.12901214 0.22165275 0.34742874 0.17484805
000060 20 3b d3 3b 43 89 ae bd 67 ca 9c bd dd 0b b6 3d
       0.0064462572 -0.08522274 -0.07655793 0.088889815
000070 e0 6c 8f 3c 36 5c 55 3d c6 d7 7f 3e 58 1b 11 3c
       0.01750797 0.052089892 0.24984655 0.008856617
000080 b0 39 ec be f2 4a fa bd 6f 07 5c be 04 37 62 3e
       -0.46137762 -0.12221326 -0.2148721 0.220913
000090 da 9a 02 bd d6 45 2b 3d d4 ce b6 3c ca 4f 18 bd
       -0.03188596 0.041814648 0.02231542 -0.037185468
0000a0 9a d5 53 be 72 fb 10 3e c3 f2 44 be 60 c7 e6 bb
       -0.20686951 0.14158419 -0.19233231 -0.0070428103
0000b0 ef d2 15 be 1b a7 85 3d fb ba d3 bd 80 1d d5 bd
       -0.14631246 0.065260135 -0.10338398 -0.10406017
0000c0 ed c1 b1 3d f5 62 2a be 2b 1f 01 3e c1 1f b5 bd
       0.086795665 -0.16639312 0.12609546 -0.08843947
0000d0 d9 58 3c 3e d3 9f 03 be 65 8d 84 3d 54 28 d8 bd
       0.18393268 -0.12853937 0.06472281 -0.10554567
0000e0 56 95 80 3d 60 aa 5c 3e e6 54 b0 3e 62 b9 9f bd
       0.062784836 0.21549368 0.34439772 -0.07799031
0000f0 66 4a 19 be 75 cd b3 bd d9 a0 c6 bd 2a 4a 50 3e
       -0.14969787 -0.08779422 -0.09698648 0.20340791
000100 2a d5 bb 3d 93 b9 0f be 59 99 25 be 81 0e ad bd
       0.09171517 -0.14035635 -0.16171779 -0.08450032
000110 69 8e f4 3d 60 0d 31 3e 94 01 0d be 2a be 12 be
       0.11941225 0.17290258 -0.13770133 -0.14330354
000120 40 3b a5 3e e6 fe 40 3d c2 67 ab bd 04 5e 49 be
       0.32271767 0.04711809 -0.083693996 -0.1966477
000130 c0 1d cc 3d 0d a4 86 3d 72 95 3f be 3e 6f a7 bd
       0.09966612 0.06574259 -0.18709353 -0.08175515
000140 16 b1 37 3e e4 87 95 3d 5c 2b 4a 3c 99 b1 10 3e
       0.17938647 0.0730131 0.012339439 0.14130248
000150 d7 23 2c 3d de 8d c9 3e 5c 0d 4f 3e a8 33 48 3d
       0.042026367 0.3936605 0.2021994 0.04887739
000160 80 c1 5e be 9d c9 c2 bd f2 42 26 be 2a 8e 38 bd
       -0.21753502 -0.09511111 -0.16236475 -0.045057453
000170 e0 95 23 bc 03 f2 c3 3d d8 9b fe 3d d4 d1 ac 3d
       -0.009984463 0.095676444 0.124320686 0.08438459
000180 3e ea cf 3c 3f 90 2e be 0c af 04 3e f4 a3 38 3e
       0.02538025 -0.17047213 0.129574 0.18031293
000190 bb 16 b6 bd 00 f5 54 be 52 f6 64 be cd 43 d8 bd
       -0.08891054 -0.20796585 -0.22359589 -0.10559807
0001a0 3e 2e 2b 3e 3e c0 26 3e 58 28 5c bd 2a dd b3 bd
       0.16716859 0.16284272 -0.053749412 -0.08782418
0001b0 ab fe f1 bd 2f 6e 95 3d e0 2a 7c 3c b3 c6 a7 3d
       -0.11816152 0.072964065 0.015391082 0.08192196
0001c0 25 ee 57 3d d4 74 db bd 2b c7 05 bc 0e 7a 7d bd
       0.052717347 -0.107156426 -0.008165161 -0.06188398
0001d0 b3 eb 00 be af ae 14 3d 08 a5 cc bd 21 4e 51 3e
       -0.12589912 0.036299404 -0.09992415 0.2043996
0001e0 c3 e5 06 3e 1c 53 82 be cf 46 d8 bd d0 e1 cd 3e
       0.13173585 -0.25454032 -0.10560381 0.40211344
0001f0 f3 c9 8b 3d f7 41 47 3e 1a 91 94 be 12 2b a3 be
       0.06825628 0.19458757 -0.29016954 -0.31868798
000200 71 0e 22 be b7 46 11 3e fe 3f 1f 3c 3b 28 5a bd
       -0.15825821 0.14187132 0.009719847 -0.053261023
000210 59 d2 50 3e 3f 54 2a 3e 70 3b f9 3c f0 0d e6 bb
       0.20392741 0.166337 0.03042385 -0.0070207044
000220 1a 2c 80 bd 0e b4 bb be 23 28 d9 bd de b8 d9 3d
       -0.06258412 -0.36660808 -0.106033586 0.10630964
000230 6a c2 65 3d 44 ff d0 bc 2f 27 a2 3d c0 25 fd bc
       0.05609361 -0.025512345 0.0791763 -0.03090179
000240 c8 81 60 be aa d8 cd 3e ec db 59 3d 54 fb 3a 3e
       -0.21924508 0.40204364 0.05318825 0.18259937
000250 bc 0b 88 be ca 43 a2 3e 6f 99 01 3d 74 e3 b2 bc
       -0.26571453 0.31692344 0.031640466 -0.021836974
000260 b6 00 81 bd 31 7b 81 bc 94 ce c2 bb 6d 6d bd be
       -0.06298964 -0.015805813 -0.005945036 -0.36997548
000270 3c 55 f7 bc c9 0f a3 3d ee 06 fa bd b5 90 5d 3e
       -0.03019201 0.07961995 -0.12208353 0.21637233
000280 35 57 ee bd 2c ef 3e 3e ce 25 5e 3d 11 d8 0d bc
       -0.11637727 0.18645924 0.054235272 -0.008657471
000290 21 55 01 be 5c cc 60 3e b6 24 3d 3d c2 f2 48 3e
       -0.1263013 0.21952957 0.04617759 0.19623855
0002a0 9a 16 7a be 52 a5 b6 3e a7 da fb 3d 0e 5f 07 be
       -0.24422684 0.35673004 0.12297564 -0.13219854
0002b0 59 a1 4c 3e 89 be 9e bd 1e 04 b0 3e 67 8e b6 3d
       0.19983424 -0.077511854 0.3437814 0.0891388
0002c0 fe e6 36 3e ac 1f 0b be d6 7d 0b bd 9d 89 1c 3e
       0.17861554 -0.135863 -0.034055553 0.1528687
0002d0 08 98 a2 3e 22 a0 16 be 7f e3 5a be ac 61 7a bc
       0.31756616 -0.14709523 -0.21375845 -0.015282076
0002e0 d0 b5 2b be b8 a0 25 3c 34 34 4d 3e 06 a7 89 be
       -0.16768575 0.010109119 0.20039445 -0.2688524
0002f0 2a f3 1f be dd 05 bb 3d 1a 12 67 be c0 bd 3e 3c
       -0.15620103 0.09131978 -0.22565499 0.01164192
000300 34 5c 8e 3e 3d ad 9f 3e b6 9f d6 bc 07 37 b2 bd
       0.2780472 0.31186858 -0.026199203 -0.08701902
000310 c6 91 b0 3d 2d b4 9c bc ae f3 1e 3e 2d e7 47 3e
       0.08621554 -0.019128883 0.15522644 0.1952178
000320 32 d9 f2 3d cc c6 60 be 1b af ee bd f5 fb 19 be
       0.11857833 -0.21950835 -0.116544925 -0.1503752
000330 d3 d1 85 be 07 f9 6d bd 57 c5 2b 3d 53 32 09 3e
       -0.26136646 -0.05809882 0.041936245 0.13398103
000340 b4 d4 58 be 26 50 81 bd 8e 89 0f 3e 90 71 06 be
       -0.2117489 -0.06314115 0.14017317 -0.13129258
000350 c0 a2 a7 bd 40 e4 1a be 61 1b 1a 3e 80 b5 4f 3b
       -0.08185339 -0.15126133 0.15049507 0.0031693876
000360 48 09 90 3e f3 cc c9 3d b0 36 aa 3d 86 f5 0f 3e
       0.2813208 0.09853544 0.08311212 0.14058504
000370 e0 53 41 3e 54 8a bf 3d 13 b1 47 3e e4 9e b1 3c
       0.18879652 0.09352556 0.19501142 0.02168221
000380 04 05 b7 3d 47 e6 ef bb ff 45 5a bd 79 26 a5 bd
       0.089365035 -0.0073211524 -0.05328941 -0.08063979
000390 d9 b3 c5 3d 50 b8 3d 3e 39 1c 0d 3e 04 65 16 be
       0.09653444 0.18527341 0.13780297 -0.14686972
0003a0 05 3f 1e 3e 6c 7e 37 be 8a f4 87 3d 80 49 23 3a
       0.15453728 -0.1791932 0.06638439 0.0006228909
0003b0 a1 1c bc 3c cb 19 3c be 9e 20 09 3e bb c0 8f 3e
       0.02296287 -0.18369214 0.13391349 0.2807673
0003c0 e1 61 f2 3d 1c c5 e4 3c 9f a3 5f be f3 d4 83 3e
       0.11835075 0.02792602 -0.2183976 0.25748405
0003d0 8e e7 5a 3e 3d 89 f0 3d 7a 11 79 3d 10 b5 0b 3e
       0.21377394 0.11744926 0.060807683 0.13643289
0003e0 f9 b9 53 3e 40 0e 57 3e 63 2d 02 be 08 e7 c0 bd
       0.20676412 0.2100153 -0.12712626 -0.09419066
0003f0 7d b0 ba 3d be cc 39 3c 02 79 97 be 54 ab 38 be
       0.09115694 0.011340318 -0.2958451 -0.18034106

layers.2.bias f4 [20]
000000 d4 28 01 3e ed 42 36 be 5e 18 28 3e 94 74 71 3d
       0.12613231 -0.17798968 0.16415545 0.05894907
000010 e7 c7 42 3e be 4f 36 3d 43 2d 31 be 1b d2 08 bd
       0.19021569 0.04450964 -0.17302422 -0.033403497
000020 ea 8a c5 bd 27 64 1f be ae 35 82 3d 6a d8 4e be
       -0.096456364 -0.15565549 0.06357895 -0.20199743
000030 bb 96 c3 3d 6b fc 2d be 7c 37 0e 3e 90 6b ea bd
       0.09550234 -0.16990821 0.13888353 -0.11446297
000040 0b f9 c7 3d e1 44 4a 3e 57 b3 bb 3d 6f 68 bc bd
       0.09764298 0.19752838 0.09165066 -0.091996066

layers.3.weight f4 [2, 20]
000000 02 cd 1e bf 0c 88 34 3e ca 8a 09 3e 91 30 0c 3f
       -0.6203157 0.17630023 0.1343185 0.54761606
000010 28 5b 22 3d e5 61 a3 3e 18 f5 97 3e 56 22 bc be
       0.039637715 0.31910625 0.2967918 -0.36744946
000020 5a a9 d3 be 86 ca 50 3f ff c7 73 bf fe b6 50 bf
       -0.41340142 0.81559026 -0.95227045 -0.81529224
000030 58 9e 43 3e 33 9f 0a bf 23 6d e7 bd e0 66 80 3e
       0.19103372 -0.5414917 -0.11300113 0.25078487
000040 d0 4d 1d bf fa 28 9a 3f 83 07 c9 bd 65 ba 10 3f
       -0.6144686 1.2043755 -0.09815886 0.56534415
000050 1a a6 76 3e 62 f0 06 bf 11 e5 12 bf 12 50 0c bf
       0.240868 -0.52710545 -0.5738078 -0.5480968
000060 10 1d 11 3c 8e 0b 22 be 3b 29 02 bf 3e a9 f2 3e
       0.008857027 -0.1582472 -0.5084416 0.47394747
000070 89 c5 ce 3e cb cd 8b 3d 2f 5a 46 3f b2 1d 21 3f
       0.40385082 0.06826361 0.7748136 0.62935936
000080 6c 11 27 bf eb 40 f0 3e e6 fb de 3e 1c a1 f9 3e
       -0.6526096 0.46924528 0.43551558 0.4875573
000090 50 a9 51 3f 80 35 a2 be c0 25 95 be 0c 3f 0e bd
       0.81898975 -0.31681442 -0.29130363 -0.034728095

layers.3.bias f4 [2]
000000 12 cb d9 3d 6a 84 2e 3d
       0.10634436 0.04260675
