notebooks/sa_model_params.pt (torch, 9248 bytes, 8 tensors)

layers.0.weight f4 [20, 30]
-0.015136167 -0.07539023 0.018880673 -0.075094946 -0.1269947 -0.25917274 -0.34884357 0.055485927
0.057180252 0.040063016 0.13586271 0.17229462 -0.23511061 0.14580727 0.09270233 0.028295323
0.53762627 0.32114664 -0.13350978 0.021650448 -0.0917049 0.57902646 -0.1067794 -0.104856454
0.28974426 -0.17335877 0.07238165 -0.24885881 -0.07282497 0.14624202 -0.14410928 -0.09777109
-0.12352248 0.14294845 -0.12740824 0.004854493 0.15815116 0.35726765 0.20124976 0.0156087
-0.28495392 -0.30588385 -0.107174 0.30914992 -0.051978614 -0.3407266 -0.4236727 0.10625043
-0.022574268 -0.47352788 -0.047136568 0.22949618 -0.34942925 0.08129119 -0.2159319 0.01565978
-0.57808155 0.22167087 0.07591369 -0.042026825 0.06747129 0.12831895 -0.31960005 0.20979343
-0.26277405 0.32034793 -0.034794815 0.090098314 -0.33607724 0.36665285 -0.0018753409 0.02765017
0.27110383 0.2754388 0.05106002 0.46464738 -0.2326405 -0.09028936 0.20938753 0.17783998
0.023136728 -0.026729159 0.14960082 0.1022979 0.18261662 -0.12204946 -0.12464734 -0.069863774
0.058675457 -0.041381292 0.077904776 0.006031804 0.16745096 0.05536078 -0.281415 0.0752236
0.05077649 0.14031036 -0.2780689 -0.27691615 -0.035611637 -0.19213673 -0.042529263 0.008030638
0.05174088 0.23778978 -0.17246109 0.20151636 0.25320193 -0.09613418 0.20769617 -0.41352364
-0.08181527 -0.03616063 -0.47151643 -0.1477701 0.19542259 0.039163597 -0.14141935 -0.2402257
-0.03915157 -0.13001473 -0.008678302 -0.3455388 0.3556936 -0.05261834 -0.06550567 0.12998733
0.36740905 -0.07537153 0.0920216 0.04785271 -0.009300306 -0.076068275 0.019894594 0.039134815
-0.04599484 -0.45233417 0.29166234 0.13617232 -0.13417637 -0.022398688 0.17503601 -0.25849435
0.17331414 -0.056002922 -0.07225263 -0.09617571 0.14690706 -0.036743246 -0.1270383 -0.0017297342
0.04965619 -0.056849606 0.114154525 -0.25427648 0.3453332 0.039088808 -0.1717067 0.05983679
-0.08708112 0.04239519 -0.04475703 0.045189425 0.33615392 0.29173434 -0.2002718 0.04201866
-0.22148624 0.13095915 -0.121186726 -0.11774152 -0.04783634 0.017503195 0.13243008 0.1388784
0.15443 -0.10219061 -0.3227627 -0.074347526 0.13946068 0.1249515 -0.18797329 0.00078469515
-0.3337071 0.23437327 -0.38240096 0.34777617 0.0214604 -0.16321856 -0.12705737 -0.15201895
-0.009386674 0.20016237 0.24776569 0.08900802 0.07232948 -0.07067584 -0.08842673 0.032585584
-0.08002379 0.21331966 0.17248277 -0.11400692 -0.349478 0.080058284 -0.08198159 -0.16026962
-0.13542777 0.3078022 0.1521979 0.12580965 0.16108638 -0.14797744 -0.048072614 0.019698039
0.23865753 0.24501356 0.12738806 -0.0002811551 -0.17274132 -0.06929942 0.12420987 0.370238
-0.092343956 -0.19752294 0.029645674 0.12870122 0.25123486 0.22847977 -0.12927395 0.03046652
-0.09005779 -0.089659 0.26685813 -0.38091284 -0.08089145 0.16580306 -0.060852736 -0.1264751
-0.07462715 -0.040248238 -0.144319 -0.27649498 0.111633606 0.33497468 -0.13787708 -0.085795365
0.05500769 -0.06979929 0.33613992 -0.06345506 0.18305498 -0.2763381 -0.2727529 -0.093954675
00000000: b0fd 77bc 3166 9abd a4ab 9a3c 61cb 99bd
00000010: e60a 02be 4ab2 84be a09b b2be 3645 633d
00000020: d735 6a3d 1e19 243d 981f 0b3e 006e 303e
00000030: d6c0 70be 804e 153e b8da bd3d 98cb e73c
00000040: e0a1 093f 556d a43e cab6 08be 485c b13c
00000050: c7cf bbbd 143b 143f 28af dabd fbbe d6bd
00000060: 5c59 943e f684 31be d53c 943d d8d4 7ebe
00000070: 4225 95bd 78c0 153e 6291 13be 363c c8bd
00000080: 5bf9 fcbd 1461 123e 4e77 02be 7012 9f3b
00000090: 61f2 213e c9eb b63e 6b14 4e3e a2bb 7f3c
000000a0: 7be5 91be cf9c 9cbe 0b7e dbbd e648 9e3e
000000b0: 87e7 54bd b873 aebe a1eb d8be d399 d93d
000000c0: aced b8bc 3f72 f2be 4612 41bd 0c01 6b3e
000000d0: 64e8 b2be ff7b a63d 411d 5dbe f048 803c
000000e0: 27fd 13bf b0fd 623e a378 9b3d 5224 2cbd
000000f0: 632e 8a3d 0b66 033e 9ea2 a3be 17d4 563e
00000100: 528a 86be a504 a43e 0285 0ebd 7785 b83d
00000110: 5112 acbe ecb9 bb3e 00ce f5ba 9c82 e23c
00000120: 1fce 8a3e 5006 8d3e 5024 513d 43e6 ed3e
00000130: 5039 6ebe a1e9 b8bd af69 563e af1b 363e
00000140: 3c89 bd3c 1cf7 dabc f530 193e 9081 d13d
00000150: daff 3a3e 11f5 f9bd 1b47 ffbd bd14 8fbd
00000160: ad55 703d 6e7f 29bd 8a8c 9f3d 70a6 c53b
00000170: 4478 2b3e fcc1 623d a015 90be d50e 9a3d
00000180: 02fb 4f3d 85ad 0f3e 0c5f 8ebe f4c7 8dbe
00000190: 82dd 11bd 7ebf 44be 2a33 2ebd f092 033c
000001a0: 3fee 533d 2a7f 733e a499 30be 4e5a 4e3e
000001b0: afa3 813e ffe1 c4bd 4eae 543e 5fb9 d3be
000001c0: c48e a7bd 2b1d 14bd 9a6a f1be 0c51 17be
000001d0: dc1c 483e 026a 203d 3cd0 10be bafd 75be
000001e0: 665d 20bd 9522 05be 702f 0ebc 76ea b0be
000001f0: 791d b63e 5486 57bd d627 86bd 661b 053e
00000200: 0a1d bc3e 645c 9abd d275 bc3d 3401 443d
00000210: 5060 18bc afc9 9bbd fdf9 a23c d44b 203d
00000220: 1665 3cbd 5898 e7be c454 953e c270 0b3e
00000230: 8865 09be 747d b7bc a43c 333e 5f59 84be
00000240: 4379 313e 5263 65bd 30f9 93bd c5f7 c4bd
00000250: ce6e 163e 1680 16bd 5416 02be 40b8 e2ba
00000260: 4a64 4b3d 22db 68bd d9c9 e93d 8730 82be
00000270: 83cf b03e 961b 203d e2d3 2fbe 6c17 753d
00000280: 9657 b2bd 94a6 2d3d 2653 37bd 8c18 393d
00000290: 5e1c ac3e 345e 953e 0d14 4dbe c21b 2c3d
000002a0: 4acd 62be 281a 063e bf30 f8bd 7722 f1bd
000002b0: 0af0 43bd dc62 8f3c c09b 073e 2436 0e3e
000002c0: e622 1e3e 4f49 d1bd 2741 a5be 8443 98bd
000002d0: c8ce 0e3e 92e6 ff3d 127c 40be 00b4 4d3a
000002e0: a8db aabe 8cff 6f3e 0fca c3be b80f b23e
000002f0: b9cd af3c c422 27be 541b 02be dbaa 1bbe
00000300: 90ca 19bc 5df7 4c3e 4ab6 7d3e d649 b63d
00000310: 7a21 943d 7fbe 90bd 1319 b5bd 7678 053d
00000320: 83e3 a3bd 7870 5a3e 539f 303e 767c e9bd
00000330: c8ee b2be 99f5 a33d f7e5 a7bd b81d 24be
00000340: 94ad 0abe 4098 9d3e c4d9 1b3e 3fd4 003e
00000350: d4f3 243e 6687 17be cae7 44bd c85d a13c
00000360: a462 743e d6e4 7a3e 0472 023e 0068 93b9
00000370: 1ae3 30be dbec 8dbd bf61 fe3d d68f bd3e
00000380: d41e bdbd 7443 4abe 7cdb f23c 41ca 033e
00000390: dba1 803e 9af6 693e 6460 04be ec94 f93c
000003a0: 3870 b8bd 239f b7bd a1a1 883e 0207 c3be
000003b0: 6baa a5bd 47c8 293e b840 79bd b082 01be
000003c0: 1fd6 98bd 56db 24bd 5cc8 13be c090 8dbe
000003d0: 29a0 e43d cd81 ab3e a62f 0dbe 7bb5 afbd
000003e0: be4f 613d eef2 8ebd 881a ac3e baf4 81bd
000003f0: c472 3b3e 307c 8dbe 45a6 8bbe 4f6b c0bd

layers.0.bias f4 [20]
0.10945859 0.06481556 0.09741305 0.07883064 -0.13759935 0.1167496 -0.01335311 -0.12044513
0.09939486 0.111473806 0.08288881 0.10826263 0.061419573 -0.09933588 0.03658068 0.093309976
0.061550856 -0.021449344 -0.12987877 0.03281494
00000000: d32b e03d 05be 843d 7e80 c73d f571 a13d
00000010: d8e6 0cbe 6a1a ef3d 01c7 5abc f0ab f6bd
00000020: 888f cb3d 614c e43d 9cc1 a93d ccb8 dd3d
00000030: 1793 7b3d 9c70 cbbd a0d5 153d 4d19 bf3d
00000040: c01c 7c3d 89b6 afbc f1fe 04be f568 063d

layers.1.weight f4 [20, 20]
-0.060138933 0.39270976 -0.27821016 -0.15920663 -0.4455792 -0.16518375 0.27419356 -0.12583992
0.4309506 -0.08473825 -0.14484122 0.15666723 -0.03471879 0.015509717 -0.1514568 0.28907618
-0.3803613 -0.32347548 0.5211863 -0.1438624 0.0075225085 0.15793519 0.10840123 0.20613965
0.024898566 -0.18457362 0.19432715 0.12349158 -0.042609468 0.098103754 0.2926124 -0.21797526
-0.011824474 0.47992566 -0.37401986 -0.0664156 -0.25495997 -0.2564003 -0.06326484 0.1671817
0.19776228 0.0136139095 -0.14197597 -0.5404343 -0.12239649 -0.51368695 0.06877519 0.13291055
-0.71984416 -0.112270914 0.2009202 0.2256951 0.27038428 0.22009115 0.38385704 -0.17035417
0.75640464 0.026179127 0.6060072 -0.1311746 0.30701333 0.14765583 0.29274955 -0.45461503
0.105024345 0.19386451 -0.4733303 0.17340186 0.13214245 0.35157782 -0.05117286 -0.038084798
0.11389267 0.23132369 0.62324136 0.22241336 0.21503136 0.20192617 0.15849999 -0.18689328
-0.3360403 -0.18113959 0.25527835 -0.2530062 -0.5696903 -0.14865237 0.30094942 0.030014805
0.39789432 0.5797205 0.20025009 -0.05518844 0.37604162 0.13418394 -0.24776506 -0.27112088
-0.2753431 0.18639365 -0.50389266 0.32422888 -0.034757785 -0.0011698753 -0.6293691 0.23214096
-0.14699438 0.17132235 -0.17109981 0.13239771 0.079615206 0.53338057 -0.39495736 0.3233296
0.014361255 0.15254742 0.25692937 -0.21809876 0.19796152 -0.2283934 -0.056032673 -0.21508476
0.3072775 -0.11451907 -0.24938369 -0.003449574 -0.065754525 0.18205759 0.071969666 0.13832307
-0.10440036 -0.08023175 -0.3488522 -0.2692224 0.00087310374 0.036102287 0.06613553 -0.00027351826
-0.32325497 0.09524997 0.3389789 -0.17083725 0.0026756376 0.04892368 0.11330225 0.21608618
-0.048856437 0.051179662 -0.25802067 -0.5177222 0.0047852695 -0.008234426 0.17553692 -0.12367161
-0.033939518 -0.08587443 -0.17529128 0.12332278 -0.27449772 0.40042087 0.20742267 0.12755752
-0.15312763 -0.26305705 0.11020195 0.13032122 0.319232 0.497188 -0.050979912 -0.18212524
-0.012500465 0.2330701 -0.15675086 0.30235454 0.104319476 0.15847039 0.009415939 0.055503897
-0.28386965 -0.44092432 -0.06730371 -0.07378193 0.30664185 -0.3182791 0.19635472 0.36153838
0.19843154 -0.24082473 -0.13601854 -0.5957897 -0.1877454 5.1006675e-05 0.05868043 0.31234205
-0.4598908 0.07630711 -0.35821462 0.24066511 -0.050543033 0.0676673 -0.17674395 -0.27700037
0.0075615942 -0.012083709 -0.2028774 0.035257004 -0.12487652 -0.22373658 0.10404032 -0.052040324
0.44817185 -0.02438528 0.38980263 -0.08975101 0.11849373 -0.2059827 0.15895793 -0.36268207
0.20446832 0.004698038 0.23009905 -0.28070977 -0.016685806 0.42274824 -0.14744806 -0.038284436
-0.21326365 0.39093518 0.21532324 -0.117918245 0.071697235 -0.41910696 0.33692604 0.006335512
-0.18313466 0.056288533 0.016765721 0.12124697 -0.0024298802 -0.008866787 -0.33647394 -0.30428326
0.3657577 0.06402877 0.009373024 -0.30268043 -0.26643863 -0.08807162 0.006065309 0.114073604
0.10882517 0.013026178 -0.17943776 0.2209014 0.13826087 0.043506213 -0.12588117 -0.3822593
00000000: 3e54 76bd 4111 c93e 9071 8ebe 1007 23be
00000010: f522 e4be ee25 29be 1963 8c3e 2edc 00be
00000020: 8fa5 dc3e 3f8b adbd 4251 14be 606d 203e
00000030: 4a35 0ebd 781c 7e3c 7e17 1bbe cb01 943e
00000040: b7be c2be 949e a5be 776c 053f aa50 13be
00000050: 607f f63b c3b9 213e 7701 de3d 4616 533e
00000060: 14f8 cb3c de00 3dbe b2fd 463e 27e9 fc3d
00000070: 4487 2ebd 9fea c83d 4bd1 953e e834 5fbe
00000080: 70bb 41bc d1b8 f53e 887f bfbe e704 88bd
00000090: 1d8a 82be e646 83be ff90 81bd ae31 2b3e
000000a0: 3282 4a3e e00c 5f3c 2662 11be e759 0abf
000000b0: 03ab fabd fd80 03bf 02da 8c3d b419 083e
000000c0: b547 38bf 4bee e5bd 06be 4d3e 9e1c 673e
000000d0: cf6f 8a3e 935f 613e e988 c43e 5371 2ebe
000000e0: bca3 413f 9c75 d63c 4a23 1b3f a252 06be
000000f0: da30 9d3e 1733 173e 45e3 953e 4dc3 e8be
00000100: 0117 d73d 6b84 463e 5958 f2be 4290 313e
00000110: 5a50 073e 0202 b43e a29a 51bd cefe 1bbd
00000120: 8f40 e93d 1ee0 6c3e bf8c 1f3f 54c0 633e
00000130: 2e31 5c3e bcc5 4e3e d24d 223e f460 3fbe
00000140: 790d acbe a87c 39be d8b3 823e 078a 81be
00000150: 39d7 11bf 5438 18be 0b16 9a3e 9ce1 f53c
00000160: ceb8 cb3e 9068 143f 5c0e 4d3e 460d 62bd
00000170: 8788 c03e 8467 093e 20b6 7dbe 5bd0 8abe
00000180: c5f9 8cbe fadd 3e3e 1cff 00bf 5401 a63e
00000190: 2e5e 0ebd 8056 99ba 551e 21bf 5cb6 6d3e
000001a0: b285 16be 206f 2f3e ca34 2fbe 4493 073e
000001b0: 4c0d a33d a18b 083f da37 cabe 758b a53e
000001c0: 784b 6b3c 6435 1c3e 3f8c 833e 4855 5fbe
000001d0: 6db6 4a3e f6df 69be 8482 65bd 2e3f 5cbe
000001e0: 7a53 9d3e f988 eabd 705e 7fbe 4012 62bb
000001f0: 4faa 86bd 4e6d 3a3e d564 933d 90a4 0d3e
00000200: dbcf d5bd 8b50 a4bd c19c b2be 85d7 89be
00000210: 00e1 643a fedf 133d 1172 873d 0067 8fb9
00000220: ad81 a5be 6b12 c33d a48e ad3e f6ef 2ebe
00000230: c059 2f3b 3264 483d 030b e83d b245 5d3e
00000240: b01d 48bd c4a1 513d 491b 84be 7189 04bf
00000250: c0cd 9c3b b0e9 06bc f3bf 333e 8b47 fdbd
00000260: 2a04 0bbd efde afbd 8f7f 33be a790 fc3d
00000270: f78a 8cbe f703 cd3e 9c66 543e 709e 023e
00000280: 7dcd 1cbe 6aaf 86be 8fb1 e13d ed72 053e
00000290: 6072 a33e 6d8f fe3e 50d0 50bd 0a7f 3abe
000002a0: c0ce 4cbc eea9 6e3e 4c83 20be 37ce 9a3e
000002b0: 73a5 d53d 1046 223e 5045 1a3c 0e58 633d
000002c0: 5d57 91be d5c0 e1be 87d6 89bd fb1a 97bd
000002d0: 2900 9d3e 7af5 a2be 3611 493e 8f1b b93e
000002e0: a331 4b3e c29a 76be 7248 0bbe ac85 18bf
000002f0: 5540 40be 00f0 5538 e45a 703d 4ceb 9f3e
00000300: cf76 ebbe e746 9c3d e867 b7be ea70 763e
00000310: 3606 4fbd 2795 8a3d 5efc 34be fed2 8dbe
00000320: 40c7 f73b c0fa 45bc 18bf 4fbe a669 103d
00000330: 43bf ffbd 341b 65be 1713 d53d 3c28 55bd
00000340: c876 e53e a4c3 c7bc 3694 c73e 61cf b7bd
00000350: d7ac f23d 21ed 52be dec5 223e 77b1 b9be
00000360: 2560 513e 00f2 993b 169f 6b3e 31b9 8fbe
00000370: acb0 88bc 7572 d83e a0fc 16be 24d0 1cbd
00000380: c961 5abe a828 c83e b27d 5c3e 1f7f f1bd
00000390: 00d6 923d 3095 d6be 9281 ac3e 209a cf3b
000003a0: a787 3bbe ce8e 663d 4458 893c 5550 f83d
000003b0: a03e 1fbb 0046 11bc 5046 acbe 04cb 9bbe
000003c0: 9844 bb3e 8421 833d 5091 193c eef8 9abe
000003d0: a56a 88be e55e b4bd 80bf c63b 6c9f e93d
000003e0: bbdf de3d c06b 553c 88be 37be fa33 623e
000003f0: 4294 0d3e 9233 323d fee6 00be 7eb7 c3be

layers.1.bias f4 [20]
0.12196099 0.1370839 -0.18831283 -0.085124224 -0.1989763 0.13723227 -0.10704255 0.15241337
0.029770149 -0.10721691 0.20903756 -0.2175506 -0.020424712 -0.17335385 -0.2166148 -0.1018694
0.012559004 -0.13349688 0.21619949 0.18388815
00000000: afc6 f93d b95f 0c3e 14d5 40be 9c55 aebd
00000010: 71c0 4bbe 9e86 0c3e 2039 dbbd 4012 1c3e
00000020: 87e0 f33c 8a94 dbbd f10d 563e 96c5 5ebe
00000030: ba51 a7bc ac83 31be 45d0 5dbe e7a0 d0bd
00000040: 48c4 4d3c 68b3 08be 6663 5d3e 2d4d 3c3e

layers.2.weight f4 [20, 20]
-0.19528863 0.51732343 -0.13866878 -0.0029341355 -0.26709127 -0.39066598 0.024379835 0.6148369
-0.17790306 -0.022463256 -0.20758867 -0.04861992 0.09017295 0.02856534 0.0014088303 -0.07690265
0.0041134357 0.1436297 0.09335258 -0.44884694 -0.28289995 0.008052796 -0.20681782 -0.15790325
-0.09630976 0.17625144 -0.18156089 -0.041663848 0.37684348 -0.38386136 -0.018771067 -0.21287689
-0.018250234 0.29798502 0.41749886 0.21967518 0.04258191 -0.48204422 0.43166676 0.26680112
-0.16135336 -0.09018753 -0.16045058 0.32177186 -0.20084964 -0.40667653 0.1833926 -0.0003644377
0.02676157 -0.14861263 -0.2511249 -0.42090175 0.25628465 0.31368 0.059535697 -0.1837412
-0.11369868 0.067072175 0.25085774 -0.016558781 -0.07844033 -0.12444028 -0.057245232 -0.08250965
-0.058276735 -0.15160474 -0.097999595 -0.12737215 0.116964445 0.25272372 0.0871451 0.2408266
-0.33253795 -0.0058233216 0.11922278 0.043579906 -0.031003743 0.20282146 -0.30764857 0.89587545
0.012133643 -0.11992126 -0.033812292 -0.09825131 -0.29558662 -0.08797955 -0.27955726 0.31266516
0.103678934 -0.075599864 0.30970097 -0.40672508 0.07443285 0.044101857 -0.15525803 0.0750457
-0.13820192 0.02147293 0.1546485 -0.06905275 0.07122826 -0.25932524 0.08139208 -0.37276977
-0.23474747 -0.04313245 -0.16458885 -0.1703656 -0.067373805 -0.1417583 -0.19197187 0.026875071
-0.34220654 -0.014081135 0.25037602 -0.06677445 0.09600399 0.12057729 -0.41512805 -0.6233664
-0.12045875 0.014454886 -0.31653324 -0.08107082 0.084446326 -0.73934144 0.17900753 -0.16359615
-0.30528474 0.28189436 0.69567895 -0.2168679 -0.004167095 -0.32520267 0.15936717 0.19679704
0.25373137 -0.23899332 -0.16407636 -0.20089743 0.21008345 -0.105653234 -0.11492651 0.007646464
-0.103975855 0.19745794 0.46094155 -0.20591597 -0.21463646 0.13839296 0.042933874 0.16119379
0.041340612 0.46128747 0.1895741 0.20837408 0.10116055 0.07764445 0.20280777 -0.2543643
0.021656498 0.19697618 0.15529016 -0.105923675 -0.032872938 0.13072965 0.22325242 0.06225229
-0.21798675 0.46949837 0.005428709 -0.27026188 0.18946365 -0.27650696 -0.294657 0.08525332
0.10583206 -0.076879136 0.23487788 -0.107085004 0.29306743 -0.06651811 -0.0893937 -0.07478636
0.15792197 -0.3220635 0.06433199 0.03547179 -0.26388872 0.06268577 -0.22093706 0.27550322
0.2600873 -0.0042804107 -0.27811846 0.08639283 -0.15516916 0.011186324 -0.39692467 0.11351652
0.51604384 0.16963124 0.49323475 -0.15978417 -0.30763492 0.20555034 0.42973584 -0.096636616
-0.2233292 -0.007695742 0.43407345 -0.5430729 0.28303662 -0.16941912 -0.32208282 -0.2482925
0.5585254 0.15328765 -0.21165854 -0.032416828 0.34282148 0.11323814 0.042602234 0.45517448
0.037525706 0.05501751 0.36438373 -0.11672134 0.34295586 0.09386864 0.065976046 0.49947277
0.23018736 0.12463563 -0.039438866 -0.30528787 0.0900284 0.056583352 0.053338952 -0.22199729
0.12525776 -0.20554365 0.008080341 -0.517452 -0.10565653 0.07983399 -0.22077277 -0.09919854
-0.2074593 0.35339603 -0.3727165 -0.37361205 -0.35896647 0.008752674 0.08457624 -0.30442715
00000000: bef9 47be 4f6f 043f 30ff 0dbe a04a 40bb
00000010: 30c0 88be 5f05 c8be 38b8 c73c f365 1d3f
00000020: 382c 36be dd04 b8bc 2092 54be ae25 47bd
00000030: 98ac b83d dc01 ea3c 80a8 b83a 237f 9dbd
00000040: 00ca 863b aa13 133e a32f bf3d 44cf e5be
00000050: 43d8 90be e0ef 033c 0dc8 53be 64b1 21be
00000060: 0d3e c5bd 427b 343e 19eb 39be b6a7 2abd
00000070: a1f1 c03e 7a89 c4be c8c5 99bc 66fc 59be
00000080: 8481 95bc 7e91 983e 69c2 d53e 88f2 603e
00000090: 5e6a 2e3d 80ce f6be 6d03 dd3e 289a 883e
000000a0: d139 25be 3db4 b8bd 284d 24be 48bf a43e
000000b0: 87ab 4dbe e837 d0be 45cb 3b3e 0012 bfb9
000000c0: 143b db3c e92d 18be 7193 80be 6f80 d7be
000000d0: be37 833e aa9a a03e b4db 733d a726 3cbe
000000e0: dbda e8bd 235d 893d 6d70 803e 48a6 87bc
000000f0: 53a5 a0bd 8cda febd fa79 6abd d2fa a8bd
00000100: 96b3 6ebd 463e 1bbe 03b4 c8bd d86d 02be
00000110: 0e8b ef3d 0165 813e 2179 b23d 409b 763e
00000120: 6a42 aabe 90d1 bebb 132b f43d d880 323d
00000130: 90fb fdbc 6eb0 4f3e 1d84 9dbe 1858 653f
00000140: 30cc 463c 4799 f5bd c27e 0abd fc37 c9bd
00000150: 2157 97be 9f2e b4bd 2122 8fbe a615 a03e
00000160: 9f55 d43d 1ad4 9abd 2091 9e3e 453e d0be
00000170: 4070 983d 26a4 343d f6fb 1ebe 8fb1 993d
00000180: ce84 0dbe 00e8 af3c 2d5c 1e3e 876b 8dbd
00000190: 1fe0 913d 47c6 84be e4b0 a63d aedb bebe
000001a0: a461 70be a7ab 30bd fb89 28be 5274 2ebe
000001b0: 47fb 89bd 1629 11be 4694 44be 1c29 dc3c
000001c0: b235 afbe 90b4 66bc 4931 803e 0bc1 88bd
000001d0: bd9d c43d 3af1 f63d aa8b d4be f194 1fbf
000001e0: 14b3 f6bd 30d4 6c3c a510 a2be 7508 a6bd
000001f0: 32f2 ac3d 7b45 3dbf c04d 373e c085 27be
00000200: 484e 9cbe 7554 903e 0418 323f 9e12 5ebe
00000210: 208c 88bb f780 a6be 2631 233e 2a85 493e
00000220: 14e9 813e aaba 74be a203 28be 0eb8 4dbe
00000230: 1e20 573e b960 d8bd 975e ebbd 308f fa3b
00000240: 4bf1 d4bd 6a32 4a3e 8800 ec3e a3db 52be
00000250: a9c9 5bbe e2b6 0d3e 6edb 2f3d fc0f 253e
00000260: c654 293d df2d ec3e b61f 423e 0460 553e
00000270: 432d cf3d 0e04 9f3d d7ac 4f3e 0a3c 82be
00000280: f868 b13c 20b4 493e 6204 1f3e 83ee d8bd
00000290: c6a5 06bd fedd 053e 489c 643e 42fc 7e3d
000002a0: eb37 5fbe 1762 f03e 50e3 b13b c45f 8abe
000002b0: c202 423e 5292 8dbe 48dd 96be 4b99 ae3d
000002c0: 7bbe d83d cf72 9dbd d483 703e 624f dbbd
000002d0: ef0c 963e a63a 88bd 0b14 b7bd 9729 99bd
000002e0: 4cb6 213e 82e5 a4be 7ec0 833d de4a 113d
000002f0: 6c1c 87be 6661 803d 533d 62be c20e 8d3e
00000300: 2a2a 853e b042 8cbb 8b65 8ebe b9ee b03d
00000310: aae4 1ebe d846 373c b639 cbbe 597b e83d
00000320: 731b 043f d0b3 2d3e 4489 fc3e 769e 23be
00000330: 5382 9dbe ca7b 523e 5606 dc3e 6be9 c5bd
00000340: 69b0 64be 902c fcbb e03e de3e d306 0bbf
00000350: 2dea 903e 357c 2dbe 0ae8 a4be 6440 7ebe
00000360: 85fb 0e3f 70f7 1c3e 04bd 58be 82c7 04bd
00000370: 4c86 af3e 66e9 e73d ae7f 2e3d a10c e93e
00000380: 8eb4 193d 0a5a 613d 8190 ba3e 990b efbd
00000390: e997 af3e 343e c03d 731e 873d e5ba ff3e
000003a0: 3cb6 6b3e f740 ff3d a68a 21bd b14e 9cbe
000003b0: cf60 b83d f2c3 673d f279 5a3d 4253 63be
000003c0: 9243 003e 097a 52be 6863 043c bc77 04bf
000003d0: 7362 d8bd 0180 a33d 4212 62be 9b28 cbbd
000003e0: 3670 54be 53f0 b43e b2d4 bebe 144a bfbe
000003f0: 74ca b7be 6067 0f3c 4f36 ad3d e0dd 9bbe

layers.2.bias f4 [20]
-0.14280191 -0.046097938 -0.041532192 -0.05088408 -0.00025960285 -0.20090273 0.016697563 0.19729793
0.08060046 -0.014317528 0.17891322 0.20544685 0.1563656 0.00090867665 0.18921466 -0.21337372
-0.09386865 -0.051151972 0.028263124 0.07248613
00000000: aa3a 12be 31d1 3cbd a91d 2abd d36b 50bd
00000010: 4e1b 88b9 72b9 4dbe 54c9 883c 7808 4a3e
00000020: db11 a53d 1194 6abc 0735 373e a960 523e
00000030: 4e1e 203e 4234 6e3a 7dc1 413e a47e 5abe
00000040: 353e c0bd bb84 51bd 1188 e73c 9c73 943d

layers.3.weight f4 [2, 20]
-0.92197216 -0.49115184 -0.7348679 -0.5815839 0.7060401 -0.5514537 -0.060474947 0.0010790676
-0.4409019 1.1456139 -0.0882447 -0.46151885 0.034778856 -0.93744457 -0.21821928 0.17961729
0.4816316 -0.074365065 2.5943608 -0.9715489 0.08464768 -0.82695687 0.30595225 -0.061388932
-1.389373 0.61997324 -0.53093517 0.40925696 0.2483964 -0.3284794 0.9061414 -0.29999802
0.6717817 -1.6547254 -0.6851678 -0.09636878 -0.61678565 -0.46350345 -0.54702026 0.8037735
00000000: 5e06 6cbf 4178 fbbe 4d20 3cbf afe2 14bf
00000010: 0bbf 343f 122c 0dbf 94b4 77bd 806f 8d3a
00000020: e5bd e1be 7aa3 923f a3b9 b4bd 334c ecbe
00000030: 4674 0e3d 5efc 6fbf e074 5fbe 98ed 373e
00000040: 6b98 f63e b64c 98bd 020a 2640 6eb7 78bf
00000050: c35b ad3d 72b3 53bf c6a5 9c3e f672 7bbd
00000060: f9d6 b1bf 91b6 1e3f 5eeb 07bf 218a d13e
00000070: a05b 7e3e 742e a8be e2f8 673f 5799 99be
00000080: e3f9 2b3f 0bce d3bf 2867 2fbf ff5c c5bd
00000090: aae5 1dbf 5350 edbe 8509 0cbf 1ac4 4d3f

layers.3.bias f4 [2]
0.07604239 0.06901824
00000000: 1dbc 9b3d 6f59 8d3d
