notebooks/sa_model_params.pt (torch, 9248 bytes, 8 tensors)

layers.0.weight f4 [20, 30]
000000 27 00 ca 3d b1 8b 98 3e f8 22 80 be 94 96 09 be
       0.0986331 0.29794076 -0.2502668 -0.13436347
000010 0c 25 f3 3c e7 dd e5 3e aa f2 ca 3e 88 84 b0 3e
       0.029680751 0.4489586 0.39638263 0.34476113
000020 71 bf 1d bf 66 b7 53 bd 78 a6 82 be 47 4d 83 3d
       -0.6162024 -0.051688574 -0.2551763 0.06411224
000030 09 81 8c be 9b a2 f7 bd d4 a8 ca 3c 30 ef 8b bf
       -0.27442196 -0.120915614 0.024738707 -1.0932369
000040 6e 4f 30 3e fc a4 35 3f 81 7d fd bd 23 d3 a2 bd
       0.172178 0.7095487 -0.123774536 -0.079504274
000050 aa cf 87 3d af d2 80 3e 2a fb 0f 3f 66 01 16 3d
       0.06631406 0.2516074 0.5624262 0.036622427
000060 72 aa 2e 3e f9 b0 d6 3e c0 48 29 3e 98 ee fa 3c
       0.17057207 0.41931894 0.16531658 0.030631348
000070 7a 3f a1 be 13 bb 15 be 82 46 2f be 25 3c af be
       -0.3149374 -0.14622144 -0.1711674 -0.34225574
000080 c6 30 d6 be f7 83 15 bf f7 40 3a bf c1 73 a8 3e
       -0.41834086 -0.5840449 -0.7275538 0.32900813
000090 a4 88 53 be 19 f4 e9 3e 84 be 04 bf ca b4 93 3e
       -0.20657593 0.45694044 -0.51853204 0.2884887
0000a0 a9 22 b9 bd cf b2 bf bd 80 2b 2d be e8 eb f1 3c
       -0.09039814 -0.09360277 -0.16911125 0.029531434
0000b0 8c 16 07 be 6b ca c9 be f9 60 a1 3e 2a 04 54 3e
       -0.13192195 -0.39412245 0.31519297 0.20704713
0000c0 ce 57 a3 3e 45 2c d0 be ec 75 aa bd 5e 54 c3 3e
       0.31902927 -0.40658775 -0.08323273 0.38150305
0000d0 bc 99 02 be 9d 83 39 3f ed b3 fa 3d 21 85 1b bf
       -0.12753958 0.7246645 0.12241349 -0.60750014
0000e0 85 61 bb be 74 68 6f 3d 9b 93 01 be f8 b5 cf 3e
       -0.3659784 0.058449224 -0.12653963 0.4056852
0000f0 39 6a f0 bd a5 64 f2 3e d7 7c dd bd c4 1e 0e 3f
       -0.1173901 0.4734241 -0.10814827 0.55515695
000100 67 44 cd 3d a8 65 64 be e7 07 96 be 5c 53 6c bd
       0.10022812 -0.22304404 -0.29302904 -0.057696685
000110 60 54 59 3c 3b 5f ff bd db 37 57 bf 92 8b 07 3d
       0.0132647455 -0.12469336 -0.84069604 0.03309209
000120 c4 d4 20 bf e4 d9 b3 3e 6c 29 71 3d 46 5a 1f bd
       -0.62824655 0.35127175 0.058877394 -0.03890445
000130 17 34 ac 3e d4 af b7 be 03 33 a2 3e 09 85 c5 3e
       0.3363349 -0.35876334 0.31679544 0.3857806
000140 5c 86 f4 3c e8 1b 26 3e 1d b9 85 be 6a 7e 3a be
       0.029849224 0.16221583 -0.26117793 -0.18212286
000150 9c ce 29 be b0 40 f0 3e 35 e4 3a bf b0 30 91 be
       -0.16582721 0.46924353 -0.73004466 -0.28357458
000160 18 0a f4 bc f6 a1 c8 3e 79 aa 3b bf 50 90 1b bf
       -0.02978997 0.39186066 -0.73306996 -0.6076708
000170 22 d6 05 3e 49 b9 21 bf ed b7 8f be 82 ad 5f be
       0.13069966 -0.6317335 -0.28070012 -0.21843532
000180 02 20 9e be b8 87 0d 3e ca 3d 78 be 47 4e d7 bd
       -0.30883795 0.13821304 -0.2424232 -0.10512977
000190 f2 e0 2f 3e ca 39 35 be f7 08 a3 bd 9e da 7b be
       0.17175654 -0.17697826 -0.07960694 -0.24595115
0001a0 38 3f 8c be ba 47 9b be 08 9b b9 3e 3f 81 ae be
       -0.27391982 -0.3032816 0.36251092 -0.34082982
0001b0 3f a6 c7 3e a0 a2 a7 3e 1b 24 13 bf 50 91 08 3c
       0.38994023 0.3274126 -0.5747697 0.008335426
0001c0 86 2b 58 be e5 04 88 3e 23 6e 06 3f a3 03 41 bf
       -0.21110353 0.26566234 0.52511805 -0.75396174
0001d0 1b bc e8 3e 6a 3c 55 3e bc 13 68 3e ef 6d 83 be
       0.45456013 0.20823827 0.22663778 -0.2566981
0001e0 e6 6e 03 be 08 33 9f 3e 94 fa 57 3e fc a1 92 3e
       -0.12835273 0.3109362 0.21091682 0.2863921
0001f0 61 de 8c be d4 63 44 3e 5e 33 15 be 33 d5 02 3f
       -0.27513412 0.19178706 -0.14570376 0.51106566
000200 86 65 0b 3e 28 62 b3 3e 61 24 3d bf 55 9e 85 be
       0.13612947 0.35035825 -0.73883635 -0.2609736
000210 1c a6 51 bf 3b 66 b4 bf 10 5e 2d be 9b 5c a6 3d
       -0.8189409 -1.4093698 -0.16930413 0.08123132
000220 24 e6 1a 3f 97 0e ed bd dc b7 df 3e f0 b7 1d 3f
       0.60507417 -0.115750484 0.4369496 0.6160879
000230 fb 62 95 3d b9 f6 d4 3e 36 26 bf 3e 49 5c a0 be
       0.0729427 0.41594484 0.3733384 -0.31320408
000240 d7 17 83 bd f6 7b a0 3e b2 59 c0 be ed 67 cd be
       -0.064010315 0.31344575 -0.37568432 -0.40118352
000250 19 10 c8 be 44 04 57 bf 7b ae 8a be a0 18 82 be
       -0.39074782 -0.83990884 -0.27086243 -0.25409412
000260 8e 8f ac be a0 c4 4c bf ba 1f 4e be 01 7a 13 bf
       -0.33703274 -0.79987526 -0.2012929 -0.5760804
000270 45 c1 36 3f 12 c6 57 bf fe 18 1e bd b1 e5 a6 3e
       0.71388656 -0.84286606 -0.038598053 0.32597116
000280 82 cf 70 be ed 05 2a 3f d6 ba 82 bd 95 e9 83 be
       -0.23516658 0.6641529 -0.063832924 -0.25764146
000290 36 3a a8 be 54 97 cb be c8 c3 8b 3c f3 9c 89 3e
       -0.3285691 -0.39763892 0.01706113 0.26877555
0002a0 53 bc ed be 01 b1 f9 3e 2c cb ad be 03 84 98 bd
       -0.46432742 0.48767856 -0.3394407 -0.07447054
0002b0 64 9c 87 3e 42 7e 6f be d1 f5 ed be c2 af 5c 3e
       0.26486504 -0.23388007 -0.46476606 0.21551421
0002c0 3b 96 d7 be 7b 87 f6 be 99 59 e4 3e 06 14 17 be
       -0.42106804 -0.48150238 0.44599608 -0.14753732
0002d0 1c bd 38 be 74 07 7d 3d 39 72 f0 be 24 03 7f be
       -0.1804089 0.061774686 -0.46962145 -0.24903542
0002e0 44 84 c6 3e 97 b1 22 bf 18 c2 79 be 42 c5 0f 3f
       0.38772786 -0.6355223 -0.24390447 0.56160367
0002f0 7d b7 59 bf 46 26 9a be c8 d1 e3 3e 26 5c a6 3e
       -0.85045606 -0.30107325 0.44495988 0.3249218
000300 c3 d9 91 3d f4 83 17 bf de 4d f1 3e 29 12 33 3f
       0.07121613 -0.5918572 0.4712972 0.69949585
000310 1c 57 53 be 92 4a 26 3e eb c7 ba 3d 9d b8 48 3e
       -0.20638698 0.16239384 0.091201626 0.19601674
000320 36 aa 54 3e bd 8a 90 be ae e7 7d 3d fa 58 00 be
       0.20768055 -0.2823085 0.061988525 -0.12533942
000330 d7 ad 9c be e2 57 30 be ed 66 ee be 97 72 e8 3e
       -0.3060138 -0.17221025 -0.465629 0.45399925
000340 34 01 2a 3e 48 63 bd 3c dc 4d ff 3e be d4 13 bd
       0.16602021 0.02311863 0.4986409 -0.03609156
000350 5f bc 13 bf 6e 74 b7 3e da 57 ff 3e 69 17 9d bd
       -0.57709306 0.35831016 0.49871713 -0.07670481
000360 4c f6 20 3e ee 18 32 bf 24 43 42 3d 35 76 e5 be
       0.15718955 -0.6956929 0.04742731 -0.44816747
000370 f3 4f a0 be 3e df c2 3e bc 43 09 be a0 62 a9 3b
       -0.31310996 0.38060945 -0.13404745 0.0051692277
000380 96 04 22 be 8c 03 43 3e ac 90 6b be 40 21 7e 3e
       -0.15822062 0.19044322 -0.23004407 0.24817371
000390 66 b1 1e 3d ab 6d 95 3d 8e d2 cd 3e 25 4d 80 3e
       0.0387434 0.07296308 0.40199703 0.25058857
0003a0 ec 75 35 be a7 20 ba 3e e7 94 9f 3e b1 b3 91 3e
       -0.17720765 0.36353037 0.3116829 0.28457406
0003b0 22 40 3a 3e 0f 29 12 3f 71 20 fb 3d 56 4e b1 be
       0.18188527 0.570939 0.12262047 -0.34630078
0003c0 ee ec 76 3d 6c dd 6f 3f 5d e4 ea be 00 3d 99 39
       0.060284548 0.9369724 -0.45877352 0.00029227883
0003d0 8f a9 31 3f d5 99 13 bf d2 08 2c be 1c 99 1a be
       0.6939935 -0.57656604 -0.1680024 -0.15097469
0003e0 29 39 4a be ee 95 6c be dd fb 00 3f 67 38 fe 3d
       -0.19748367 -0.23104069 0.5038431 0.12413102
0003f0 a2 0c 0d 3f 1c ff 3e 3d 0f 26 02 bf 30 49 11 bf
       0.550974 0.04663001 -0.5083932 -0.567523

layers.0.bias f4 [20]
000000 97 b6 1d be f1 15 8d bd e0 94 00 be 76 0a 31 3e
       -0.15401684 -0.068889506 -0.12556791 0.17289147
000010 98 a9 a0 bd 10 b6 aa bd b4 e5 c3 3d 03 f8 ac bd
       -0.078448474 -0.08335507 0.09565297 -0.08445742
000020 ef 28 b8 bd 97 d3 82 bc cd c2 8f bc 7a a2 11 be
       -0.089921825 -0.015970035 -0.017548943 -0.14222136
000030 f6 db 1b 3e cf f0 a4 bd d3 a1 84 3d 7a 9c 22 3e
       0.15220627 -0.08053743 0.06476178 0.15880004
000040 e7 91 bc 3d ec c0 d3 3c a3 12 1f 3e e6 0d c9 3c
       0.09207516 0.025848828 0.15534453 0.02454276

layers.1.weight f4 [20, 20]
000000 fd d4 97 3e d4 9b 58 3e fd 25 27 3f b7 a6 04 bf
       0.29654685 0.21153194 0.6529234 -0.51816887
000010 54 da 14 3d 6e 64 0d bf cb c6 ca 3e 81 25 10 3f
       0.036341026 -0.5523137 0.39604792 0.56307226
000020 5b f8 c4 3d f0 4d 66 bc 7c 59 0a 3f 9c ed 3d bf
       0.096176825 -0.014056668 0.5404279 -0.7419069
000030 f5 4c 45 3f df 44 a2 bd ce db 1d bf 7f 4b 82 be
       0.7707055 -0.07923292 -0.6166352 -0.25448224
000040 90 07 35 3c a0 93 43 3e c2 c0 a9 3e 40 64 4a bb
       0.011049166 0.19099283 0.33154875 -0.0030882508
000050 04 94 07 be 66 a6 6d 3e 82 7c 2f 3e 98 d3 8e 3f
       -0.13240057 0.23208007 0.1713734 1.1158323
000060 29 28 ac bf 46 f9 5a 3e 87 2c dc be 13 bd ed bd
       -1.3449756 0.21384153 -0.43002722 -0.11608329
000070 74 26 36 be 22 6e 25 3f 5c ad a4 3e b1 1b bb bd
       -0.17788106 0.64621174 0.32163513 -0.09136141
000080 90 3d 47 bc 68 a1 15 3e af 0e d3 3e 00 35 59 ba
       -0.012160674 0.14612353 0.4122214 -0.00082857907
000090 50 c9 27 be 1e d4 52 3e 2e 87 4e bf fe ab 47 3f
       -0.16385388 0.20588729 -0.8067502 0.77996814
0000a0 de 72 3e 3f d2 97 86 3f ca d5 0a be 14 90 5f bf
       0.74394023 1.0515082 -0.13558117 -0.8732922
0000b0 a3 70 8d be ef 55 94 be ae dd 07 bf b1 1b a7 be
       -0.27624997 -0.28971812 -0.5307263 -0.32638314
0000c0 2f a8 89 be 82 5b 8f 3e 4a f2 a1 be bd 4c bc 3e
       -0.26886126 0.27999502 -0.31630164 0.36777297
0000d0 a0 8b 0f 3f 87 e5 da be 60 14 49 bc d5 1a 8b 3e
       0.56072426 -0.4275324 -0.012272924 0.2716891
0000e0 aa af 2a 3e bd f5 de bd e6 cb 7c be a2 5a 24 be
       0.16668573 -0.108867146 -0.24687156 -0.16050199
0000f0 0d c8 4b 3f 31 16 0d 3f dc 67 13 3f b5 b9 49 3f
       0.7960213 0.55111986 0.5758035 0.7879899
000100 77 42 cd bd cb 22 27 3f c2 81 28 3e 97 99 ae bd
       -0.10022443 0.65287465 0.16455749 -0.08525389
000110 c2 da 57 3e ee 0b ef 3e f7 f4 b7 3d 0c 3f 0d be
       0.21079543 0.4668879 0.0898227 -0.13793582
000120 70 d7 24 3f 4b a7 b4 bd 37 10 a5 bd 0b 56 d1 be
       0.6439123 -0.08820971 -0.08059733 -0.40885958
000130 bc c4 b6 3e 4a 49 bb be d4 ea b3 3e 8f 40 8a bd
       0.3569697 -0.36579353 0.35140097 -0.06750595
000140 bf ca 1a bf 7b 74 9f 3d c4 99 99 be ea ac b3 3e
       -0.60465616 0.07785889 -0.30000126 0.3509286
000150 81 b0 0a bf c7 51 fe bd ab df 8a be da f7 63 3f
       -0.54175574 -0.124179415 -0.2712377 0.89050066
000160 dd 4f 1b bf 86 27 31 3d e8 b2 e8 bc 46 74 46 3e
       -0.60668737 0.043250583 -0.028405622 0.19380292
000170 d7 fa c1 bd 37 47 18 3f 57 b4 04 3f 80 81 1f be
       -0.09471672 0.59483665 0.51837677 -0.15576744
000180 b0 fd 36 3c f6 84 0f 3f fe e8 26 3f 53 e9 94 3e
       0.011168882 0.5606226 0.6519927 0.29084262
000190 10 e6 5f be f6 60 de 3e df 41 87 3e 34 74 ef 3e
       -0.21865106 0.4343335 0.26417443 0.46768343
0001a0 08 d3 02 be d0 b6 1c 3e b4 ac 42 be 26 2b 62 3e
       -0.12775815 0.15304112 -0.19011194 0.22086772
0001b0 4a e3 de 3e 26 7c 3c 3e 0a 4d 83 3e 6d b4 9e 3d
       0.43532783 0.18406734 0.25644714 0.07749257
0001c0 56 7e b3 be ef 19 a3 bd dc 3a 83 be bc 20 17 3f
       -0.35057324 -0.07963931 -0.25630844 0.59034324
0001d0 f6 ff 20 bf 03 de 29 bf bc 6a 0d bd d6 cd 22 be
       -0.62890565 -0.6635439 -0.034525618 -0.15898833
0001e0 6b 27 a5 3e fb e6 b0 bd 2b fc 46 3f 88 cc 29 bf
       0.32256636 -0.08637806 0.7772853 -0.66327715
0001f0 b1 57 01 3f b2 94 95 3e b8 54 1b be 8b 74 a2 be
       0.5052443 0.29215008 -0.15169036 -0.3172954
000200 03 00 ff bd e4 69 78 bf 8f 27 f6 3d 7e 8d 99 be
       -0.12451174 -0.97036576 0.12019264 -0.29990762
000210 03 58 89 3e 25 a8 93 3e bb 12 a2 bd 5e 94 49 bd
       0.2682496 0.28839222 -0.07913729 -0.04921376
000220 4f 58 d3 3d 78 5c 06 be 72 5c d0 3e de f8 36 3d
       0.10319578 -0.13121212 0.4069553 0.044670932
000230 ee 3a ab 3e 86 5f 0b 3d c2 70 4e be 69 e4 cd 3e
       0.33443397 0.034026645 -0.20160201 0.40213326
000240 d8 3f a0 bc 97 b4 41 bf 56 4a 45 bd c0 b6 c4 bb
       -0.019561693 -0.75666183 -0.048166595 -0.006003231
000250 c4 09 8b be a2 dc 87 be 3e 26 bf 3e a4 99 48 be
       -0.27155888 -0.26535517 0.37333864 -0.19589859
000260 ef 8d 9e bd 48 34 91 be ad 80 23 3f 64 02 b7 3e
       -0.077419154 -0.283602 0.6386822 0.3574401
000270 18 6a 1f 3f 9b 76 dd be fb 25 39 3f 5a be 5b be
       0.6227126 -0.4325455 0.7232358 -0.21459332
000280 ac 9a ff be a0 b7 ac 3e 4b f0 9c bd a3 61 b2 bd
       -0.49922693 0.33733845 -0.0766302 -0.08710029
000290 d8 2a c3 bc e0 3d cb 3b 89 86 de 3e eb 49 a8 3d
       -0.02382414 0.0062024444 0.43462017 0.08217224
0002a0 79 a6 93 be 60 e5 0e 3e 8b 69 cc 3d 1c a9 e3 bc
       -0.28837946 0.13954687 0.09981068 -0.027790599
0002b0 8b 1d 03 3f d4 51 76 be 77 4f 90 be 6b 77 bc bd
       0.51216954 -0.24054652 -0.28185627 -0.09202465
0002c0 33 a6 af be 77 90 82 be f1 3c df be c4 e5 0e be
       -0.34306487 -0.25500843 -0.43601182 -0.13954836
0002d0 fc 42 4c 3e 10 54 51 3e 84 de f4 3e 3a c4 41 bf
       0.19947428 0.20442224 0.47826016 -0.7569004
0002e0 6a 73 4d 3e a5 0e 4d 3f 08 1a b7 3c 1e 09 6b be
       0.20063558 0.8010047 0.02235128 -0.22952697
0002f0 3a 96 75 3e ca 46 bf be 70 d8 47 3e bb 61 fb 3d
       0.23983088 -0.37358695 0.19516158 0.122745
000300 07 b2 23 bf cc 51 36 3d 56 1e 17 3d 67 6f d3 bd
       -0.63943523 0.0445116 0.036894165 -0.10323983
000310 0a 84 93 be 85 b2 f8 3e 6c de 5b be 14 58 9a 3e
       -0.28811675 0.485737 -0.21471566 0.30145323
000320 a2 d8 36 be 17 ce a9 3e 38 35 b0 3c 73 fc 82 bd
       -0.17856076 0.33165047 0.021509752 -0.06395807
000330 6a 5a 2b 3e 52 34 0d be 27 a5 cf bd a9 0c f8 be
       0.16733709 -0.1378949 -0.10138922 -0.4844716
000340 fa 9d 40 3f 6c 71 17 bf d6 24 11 3e d4 be 14 be
       0.75241053 -0.59157443 0.14174208 -0.1452592
000350 ef 84 f4 be f2 e7 1d 3f 31 7a f9 be 30 df 1b bc
       -0.4775767 0.61682045 -0.48726037 -0.009513661
000360 55 f3 8a be 9c b9 63 bf 72 c8 65 3e 30 a1 0a bf
       -0.27138773 -0.8895509 0.22439745 -0.541522
000370 0f 73 42 3f be 62 e8 be 70 05 a8 3f 87 d8 c4 3e
       0.75956815 -0.45387834 1.3126659 0.38446447
000380 3e 7b cb 3e 84 04 7b 3e 00 78 49 3e ee 54 0f bd
       0.39742464 0.24513441 0.19674683 -0.034993105
000390 44 56 57 3e dc 3b 33 3d 07 29 bc bd b4 10 39 bd
       0.21029001 0.04375826 -0.09187513 -0.045181945
0003a0 4c 12 47 be 3d f1 8f 3e 7a e9 9a be eb c1 c1 bd
       -0.19440573 0.28113738 -0.30256253 -0.09460815
0003b0 e9 f6 ca be c8 b9 00 bf 0e f7 b1 3e e2 4d 64 3f
       -0.39641502 -0.5028348 0.347588 0.8918134
0003c0 6e bc 11 3d cf 45 f8 3d 68 21 7b 3e 56 8b 3d 3e
       0.03558009 0.1212269 0.24524462 0.18510184
0003d0 d7 fa f5 3d 7e 53 97 be e7 9c 2e 3f 40 69 08 3b
       0.120107345 -0.29555887 0.68208164 0.0020814687
0003e0 9f 95 8d 3d 8d 0a 26 3f ca 61 6b 3e b8 a5 11 be
       0.069133036 0.6485985 0.22986522 -0.14223373
0003f0 51 de d8 be 10 97 3b 3c 87 5d da bd b6 93 bb be
       -0.42357114 0.01144959 -0.1066237 -0.36636132

layers.1.bias f4 [20]
000000 28 65 02 3e 14 0d 0f be 2a df 04 be 62 69 ca 3d
       0.127339 -0.13969833 -0.12975755 0.098833814
000010 8f 58 80 bc d9 43 58 be ca 05 04 be 62 b6 b9 3d
       -0.015667228 -0.21119632 -0.12892833 0.0906799
000020 0c 53 9b bd 48 0b 1e 3e 38 03 35 3e 24 3c 05 3d
       -0.07584199 0.15433991 0.17677009 0.032528058
000030 1b d9 90 bc 5f 5d 91 bd 6e 40 39 bc 35 b6 26 3d
       -0.017681649 -0.07097887 -0.011306865 0.04070111
000040 cb e6 2e be 02 e5 5a bd d3 75 3e be 94 88 0c 3e
       -0.17080228 -0.053441055 -0.18599634 0.13723975

layers.2.weight f4 [20, 20]
000000 96 ac 2d bd ad 0b c4 bd c8 6c 21 be 56 2c 03 be
       -0.04240092 -0.095725395 -0.15764153 -0.12809882
000010 b3 e5 4a bf 74 55 55 3f ae 9d 60 3d 8d 34 d0 be
       -0.79256743 0.83333516 0.054837875 -0.40665093
000020 76 8b 1d bf 9c b1 29 3d d0 28 af be 6d e6 19 3f
       -0.61540926 0.041429147 -0.34210825 0.60117227
000030 23 4e e2 3e ea 33 0c be 9e 06 cb be c8 f3 a3 be
       0.4420024 -0.13691679 -0.39653486 -0.32021928
000040 d3 44 ab 3d 8a 85 5a be 6e b2 58 be d1 08 f4 be
       0.083627366 -0.21340004 -0.21161816 -0.47662976
000050 57 0b f4 3e 2b fe bc 3d d9 75 31 3f 78 cf 5b 3e
       0.47664902 0.09228166 0.69320446 0.21465862
000060 e7 2d d0 3e ed 7d b6 3e 1c f6 31 3e c9 32 d2 be
       0.4066002 0.3564295 0.1737904 -0.4105437
000070 e2 26 40 3e 42 b6 70 be d6 dd 5b 3d 26 db 38 bf
       0.18764833 -0.23507026 0.053678356 -0.72209394
000080 f0 05 32 3c 56 57 11 be da fd 5f 3e f8 eb 35 3e
       0.010865673 -0.14193472 0.2187418 0.17765796
000090 6c 12 d4 be 46 2c 41 3d c2 b7 90 3e e0 54 1f 3f
       -0.41420305 0.047161363 0.28265196 0.62238884
0000a0 70 91 c5 3e cc d6 27 be 39 8d f6 3e a5 64 a6 be
       0.38587523 -0.16390532 0.4815462 -0.3249866
0000b0 08 f4 29 bc 1f 2c 71 bf ab b7 00 bf 3f c1 f3 bd
       -0.010373123 -0.9420795 -0.50280255 -0.11902093
0000c0 44 97 b0 3d eb e5 28 3f eb a3 a5 bd 14 32 7b 3e
       0.08622602 0.65975827 -0.080879055 0.24530822
0000d0 93 a2 b7 bd b5 59 70 3f 19 e6 49 bf 56 10 81 be
       -0.089665554 0.9388688 -0.78866726 -0.25207776
0000e0 e0 37 01 3f 24 ee 1a bf 63 5f d1 bd 70 b8 35 3e
       0.50475883 -0.60519624 -0.10223272 0.17746139
0000f0 d2 83 c2 3e 82 7c b0 be a0 a8 c0 3e 15 a5 10 3f
       0.37991196 -0.34469992 0.3762865 0.56501895
000100 38 30 1b be 50 97 1a 3f bf 66 f3 be 0e ee 42 be
       -0.15155113 0.60387135 -0.47539327 -0.19036123
000110 a6 b3 21 bf 92 0a 34 3f 3e 02 cf be 2f e4 ec bd
       -0.63164747 0.7032863 -0.40431398 -0.1156696
000120 d1 b8 92 be b2 52 00 be 20 6b e4 bb b8 c7 90 3e
       -0.2865663 -0.12531546 -0.006970778 0.28277373
000130 b6 d9 69 3e 3b ad 85 be 5f 46 8c bf 30 e0 62 3c
       0.22836956 -0.26108727 -1.0958976 0.013847396
000140 ae 75 13 bd dc 87 49 3e aa f7 49 bd 4d 1b a1 3e
       -0.0360009 0.19680732 -0.049308456 0.3146614
000150 5a ea 57 be e6 9d 2c 3e 46 d9 13 be 4e 15 0e bf
       -0.21085492 0.16857108 -0.14438352 -0.5550126
000160 c6 64 40 3e 28 f6 02 3e 9c 35 fa 3c 79 0b 07 3f
       0.18788442 0.12789214 0.030543141 0.5275188
000170 49 98 ea be 1d aa ce 3e 82 9a 23 be 82 b3 c8 3e
       -0.4581931 0.4036416 -0.15976909 0.39199454
000180 6f 2e f7 bd ab 7b ca bd 10 a0 2e 3e 4d f6 8d 3e
       -0.120694034 -0.09886869 0.17053246 0.27726975
000190 02 53 62 3f 15 28 9a be 59 a5 d8 be 2e c0 5a be
       0.8840791 -0.30108705 -0.4231365 -0.21362373
0001a0 4d df fb be f2 4c 92 3e 14 a8 1c 3e f8 54 68 3e
       -0.49193802 0.2857433 0.15298492 0.22688663
0001b0 d1 17 c7 be 47 d6 de 3d 20 c6 0c 3e ab 93 9f be
       -0.38885358 0.10880714 0.13747454 -0.3116735
0001c0 50 84 16 bf e2 1c cb be 08 6a 8d 3e bc 93 68 3f
       -0.5879564 -0.39670473 0.27619958 0.90850425
0001d0 70 10 4d 3e 72 1a 49 3e c7 ff df be 63 b8 bd 3d
       0.20025802 0.19638994 -0.4374983 0.092636846
0001e0 04 56 a1 be 58 23 f3 3c 40 8a a0 be d0 2e 3c bc
       -0.31510937 0.02967994 -0.31355476 -0.01148577
0001f0 bc 2a 54 be 48 2b 10 bf 12 51 0b 3e f2 7b cb 3e
       -0.20719427 -0.5631604 0.13605145 0.39743
000200 6e 7a 44 be e8 c2 02 be 6f 7f 89 bf 2b 6f fd bd
       -0.19187328 -0.12769663 -1.0742015 -0.12374719
000210 c6 a3 22 3d 6b a5 e1 3e 8a 7a a9 3e 40 ee 7e 3b
       0.039706968 0.44071516 0.33101302 0.0038899332
000220 6c 48 20 bd 4e 5d c9 be 8a 14 7c 3e 88 61 87 3e
       -0.039131567 -0.39328998 0.2461721 0.26441598
000230 af 0e 85 3e 45 5b 4f 3f 58 72 9e bc d6 eb 6a bf
       0.25987765 0.8099864 -0.019341633 -0.9176611
000240 94 b6 57 bf 05 0e d6 3e 24 b9 e1 be 82 68 79 3f
       -0.8426297 0.4180757 -0.44086564 0.9742509
000250 42 b4 48 3e 33 de c1 bd 30 bb 1e bc 8d 99 a9 3e
       0.19600013 -0.09466209 -0.009688184 0.33124962
000260 b4 54 4b 3e 61 60 f7 3e ef 18 c0 3d c5 13 b3 3e
       0.1985653 0.4831572 0.09379756 0.3497602
000270 0e 79 17 3e 84 ae 64 3e 90 f5 5c 3e 4e d0 b5 be
       0.14792272 0.22332197 0.2157805 -0.35510486
000280 74 55 18 3f 4f 5f cd 3e fb d3 4e 3f ec 63 9b be
       0.5950539 0.40111777 0.80792207 -0.30349672
000290 c4 5a 55 3d ac 76 9d 3e f8 2e 21 3e 6a e6 3d be
       0.052088514 0.30754602 0.15740573 -0.18544927
0002a0 cd 3e f5 bd 37 07 5a 3f 02 79 19 bf 26 b9 34 3e
       -0.11974869 0.8516726 -0.5995027 0.17648754
0002b0 96 d1 43 3e e8 b8 47 be d3 25 d1 be 78 0e a4 be
       0.1912292 -0.1950413 -0.4084917 -0.3204229
0002c0 07 a5 18 3f 87 2a b7 bd 4c fd 24 3e 34 2e 1f 3e
       0.5962681 -0.08943658 0.1611225 0.15544969
0002d0 8d e9 ba 3e 9c 14 05 3d 44 c9 41 bd 80 07 51 3f
       0.3650631 0.032490358 -0.047311082 0.8165207
0002e0 30 5a 65 be 6d d2 1c 3f 44 23 b4 be bd 24 f9 be
       -0.22397685 0.61258584 -0.35183156 -0.48660842
0002f0 2e 25 32 be df e1 55 bf ac 83 a2 be 04 83 82 3f
       -0.17396995 -0.83547777 -0.31741083 1.0196233
000300 27 89 b4 bd ca 3b 43 bf 02 17 41 be 7a d8 2c bf
       -0.08815222 -0.76263106 -0.18856433 -0.6751782
000310 08 f3 40 3e 2a 4a e5 be 0c df 22 be a0 30 bd 3b
       0.18842709 -0.44783145 -0.15905398 0.005773619
000320 88 83 c5 be 16 3d 4d 3e e8 5e 9f bc fb 70 dd bd
       -0.38576913 0.20042834 -0.019454435 -0.10812565
000330 c6 82 33 3e 1f 36 d6 bd 8c 38 85 be 6d 0e 9a be
       0.17530355 -0.104595415 -0.26019704 -0.3008913
000340 97 57 f8 3e 00 39 1f 3e 5a b0 2f be 02 ed 9f 3e
       0.48504326 0.15549088 -0.17157117 0.3123551
000350 24 c0 4e 3e 48 d8 4c bf 26 03 a0 3e 5f ec ea bd
       0.20190483 -0.8001752 0.31252402 -0.114708655
000360 28 a5 da bc 32 22 a4 be 07 9b 09 3f b4 49 a2 be
       -0.02669008 -0.3205734 0.5375218 -0.31696856
000370 e1 b6 9d be 27 9f 8d be 28 ef 94 3e 2c 10 19 3d
       -0.30803588 -0.27660486 0.29088712 0.03736894
000380 d4 87 31 3e 35 18 66 3f e4 67 84 3e 6a ea 38 3f
       0.1733697 0.89880687 0.25860512 0.7223269
000390 4b 71 ef bd 9f 80 dd bd 94 87 be 3e e2 6b c6 3e
       -0.11691531 -0.10815548 0.37212813 0.38754183
0003a0 82 37 44 3e e4 e3 1e bf 72 83 e7 3e c2 9a 2a bf
       0.191618 -0.62066483 0.45217472 -0.6664239
0003b0 a7 65 bf bd 16 66 52 3e f2 7d e9 be 2e 13 81 3e
       -0.093455605 0.20546755 -0.456039 0.25209945
0003c0 f6 27 08 3e 73 bd f2 3e 40 5d 2b be 79 e3 0e 3f
       0.13296494 0.47410163 -0.16734791 0.55815846
0003d0 56 74 3d be 94 82 41 be 80 71 2b be 30 56 53 bc
       -0.1850141 -0.18897468 -0.16742516 -0.012898967
0003e0 c5 86 eb be 29 ba 82 be 6c f2 17 be 13 20 e7 3e
       -0.46001258 -0.25532654 -0.1483857 0.45141658
0003f0 1a f3 11 bf 26 2d 14 be 17 1c 85 bd b7 f8 e7 3d
       -0.5701157 -0.14470348 -0.06499498 0.113267355

layers.2.bias f4 [20]
000000 f3 66 da bd a3 31 25 bd bf 0c 75 bd 8e 27 49 be
       -0.10664167 -0.04033054 -0.05982661 -0.19643995
000010 3a 77 21 bd 65 2f 8c 3d e7 f3 b9 bd 10 24 1c bc
       -0.039420344 0.06844977 -0.09079724 -0.009530082
000020 ae 32 8c ba b0 f1 63 be 11 66 26 3e 5c f5 38 3e
       -0.0010696256 -0.22260165 0.16249873 0.18062347
000030 84 1d 1c 3e 92 63 96 bd 5d 4e ef 3d c0 87 56 be
       0.15245634 -0.0734321 0.116848685 -0.20950222
000040 71 94 62 bd 40 47 3a bd 46 b9 a1 bd 71 56 c0 3d
       -0.055317346 -0.045478106 -0.07896666 0.093914874

layers.3.weight f4 [2, 20]
000000 49 c4 cd be 84 5d 79 3f 09 f1 de 3e 99 e9 d1 be
       -0.40188816 0.9740832 0.4354327 -0.40998533
000010 04 74 09 bf 69 12 07 40 48 af 2d be 39 ce 47 bf
       -0.5369265 2.1104987 -0.16961396 -0.78049046
000020 9f 69 f4 3f e6 5a a6 3e 9a e3 49 bf 0a 9d 71 3f
       1.9094733 0.32491225 -0.7886292 0.9438025
000030 30 24 39 3f 79 54 18 bf c6 39 37 bf fb 4e 4a bf
       0.7232084 -0.59503895 -0.7157253 -0.79026765
000040 56 4c 13 c0 5d 11 fc 3e 0e 15 59 be 6c 36 a3 3f
       -2.3015342 0.49231997 -0.21199438 1.2750983
000050 3e 3b 37 3f 16 fe 0e c0 d6 03 da 3f 78 e9 0d be
       0.7157477 -2.2342582 1.7032421 -0.13858593
000060 88 7f 51 3f da 84 47 3f da 3b 9b be e6 11 6c bf
       0.8183522 0.7793709 -0.303191 -0.9221481
000070 4d ca f3 3e 59 38 d7 3e 1e 0d 59 3f 8c a0 13 c0
       0.4761528 0.42035177 0.8478564 -2.306674
000080 15 68 f6 be ce 15 9a 3f ee 23 06 bf 06 ba 0b 3d
       -0.48126283 1.2037904 -0.52398574 0.034112953
000090 78 1a 16 be ef 7f 8d 3f 8c 2f 26 c0 e9 3c 01 bf
       -0.14658535 1.1054667 -2.596652 -0.50483567

layers.3.bias f4 [2]
000000 89 b5 38 3e 2c f8 32 be
       0.18038 -0.17477483
