notebooks/sa_model_params.pt (torch, 9248 bytes, 8 tensors)

layers.0.weight f4 [20, 30]
0.038295466 -0.092735305 -0.06939534 -0.15713099 -0.10607209 -0.020183608 -0.0017725676 -0.16378592
-0.15801266 -0.070963584 -0.0827812 0.042275853 0.031063214 0.3640356 0.11190962 -0.22845483
-0.046420924 0.03381587 -0.037406344 -0.08292855 0.096840724 0.003702409 -0.097624645 -0.009460829
0.1166843 -0.08255135 -0.17503922 -0.1815083 -0.028031923 -0.101588376 -0.08585349 -0.31739405
0.14343534 -0.24931774 0.11173859 0.09275369 -0.023662645 -0.25601867 -0.1951769 0.060658943
0.05847962 0.016963847 -0.12434834 0.23302221 0.011719464 0.10145405 0.049195386 0.10367604
-0.17594919 -0.14846547 -0.06371895 -0.27267435 -0.088009045 -0.23993602 0.052371964 -0.09948057
-0.08176913 0.2880976 -0.09217091 -0.17257354 -0.0013172552 0.2715371 0.024393173 0.1446687
-0.11139592 -0.09707363 0.18847993 -0.015117474 -0.0002625674 -0.17261627 -0.17033827 0.09144016
-0.2528578 -0.29013053 -0.23155618 0.12834457 -0.10686611 -0.03176287 0.014234506 -0.04096478
-0.031909987 -0.1217201 -0.18651345 -0.15301247 0.079938665 -0.008962855 0.017814884 0.043872587
-0.03098198 -0.22368392 0.039629787 -0.076422125 0.34402668 -0.1428917 -0.25628152 -0.05339333
0.24521276 -0.018616058 0.030482888 0.322843 0.16185288 -0.06978785 0.090623274 -0.13325657
-0.08638955 -0.30751082 -0.08230628 -0.18070576 -0.26235735 0.07214316 -0.0012729242 -0.013752818
0.2028378 0.24846336 0.032037817 0.35665384 -0.088934235 0.060466073 -0.025962418 0.06430448
0.21344551 0.077791944 -0.19632602 0.15917009 -0.123089194 0.13771261 -0.10210409 -0.0044602505
0.06858426 0.1647186 -0.11052327 0.47784957 0.0009989515 0.06467302 -0.019789625 0.10009635
-0.12575112 -0.12555544 0.27859324 -0.25245038 -0.10398894 0.20450324 0.070771955 0.16386436
0.095967315 -0.059932254 -0.04172336 -0.07505987 -0.058574155 0.16332835 -0.11940037 -0.24630702
-0.12859495 -0.04505414 0.1275113 -0.18523934 -0.17328562 0.08913806 0.26715237 -0.38149387
-0.0016344041 -0.08330904 0.051923573 -0.09791067 0.3334917 0.05649008 0.24825844 0.013845294
-0.3531049 0.05566109 0.08422563 0.11651863 0.104601316 0.108411536 -0.05261797 -0.0051319078
-0.08060338 -0.087591715 0.009042457 0.15171912 -0.03365466 -0.10473951 -0.002534613 0.35960138
0.15498647 0.072752126 0.034489438 -0.14536746 0.06828171 0.03903505 0.08152852 -0.16821833
-0.018459983 -0.022859925 0.0005131811 -0.27338725 0.077824354 0.22311468 -0.048247498 -0.0739223
-0.110383645 0.053753577 -0.4203264 0.15277901 -0.060558915 0.08134999 0.170274 0.14325735
-0.30315012 0.16444421 -0.06573739 0.24419454 -0.19813225 -0.17200017 0.07618681 -0.09633015
0.005710732 0.039966438 0.07881995 -0.093573324 -0.20313673 0.10482455 -0.016064078 -0.111754075
0.10342489 0.14484718 0.11951476 -0.16446668 -0.010552711 -0.05891639 0.040391326 0.15158918
0.018680766 -0.2425633 0.14312309 -0.28011096 -0.0015495481 -0.15827781 -0.080715224 -0.27160788
-0.019994406 0.35366258 -0.050144196 -0.16171418 -0.037472486 0.008875884 -0.24818593 0.34299666
-0.15064403 -0.07566913 0.007582046 0.02275759 0.103589125 -0.019219393 0.025664374 -0.13194458
00000000: b5db 1c3d 02ec bdbd 251f 8ebd f2e6 20be
00000010: 533c d9bd 1858 a5bc 8055 e8ba 7fb7 27be
00000020: 12ce 21be 5b55 91bd 3189 a9bd 7229 2d3d
00000030: 4878 fe3c e062 ba3e df30 e53d 10f0 69be
00000040: de23 3ebd 8282 0a3d 6537 19bd 72d6 a9bd
00000050: 6e54 c63d 1ea4 723b 6eef c7bd 9801 1bbc
00000060: 2ef8 ee3d af10 a9bd 7b3d 33be 50dd 39be
00000070: 34a3 e5bc 910d d0bd f4d3 afbd 7981 a2be
00000080: b7e0 123e 264d 7fbe 34d7 e43d a6f5 bd3d
00000090: 2ad8 c1bc e114 83be 74dc 47be 8375 783d
000000a0: 5388 6f3d c4f7 8a3c 58aa febd 609d 6e3e
000000b0: ff02 403c 24c7 cf3d 1a81 493d 1b54 d43d
000000c0: 062c 34be 5507 18be 157f 82bd f99b 8bbe
000000d0: 163e b4bd cab1 75be fc83 563d 78bc cbbd
000000e0: 9376 a7bd 8781 933e 1ac4 bcbd 1eb7 30be
000000f0: c0a7 acba e906 8b3e 31d4 c73c 0824 143e
00000100: 8b23 e4bd 8ace c6bd e200 413e 48af 77bc
00000110: 33a9 89b9 52c2 30be 286d 2ebe fb44 bb3d
00000120: 9476 81be fd8b 94be 101d 6dbe c26c 033e
00000130: 9edc dabd c819 02bd d837 693c afca 27bd
00000140: 0cb4 02bd 6348 f9bd 62fd 3ebe 4daf 1cbe
00000150: e2b6 a33d f0d8 12bc 85f0 913c beb3 333d
00000160: eccd fdbc 660d 65be d852 223d 3483 9cbd
00000170: 4424 b03e 3452 12be 5537 83be f7b2 5abd
00000180: 0e19 7b3e b480 98bc 40b7 f93c ad4b a53e
00000190: c3bc 253e efec 8ebd b298 b93d 6974 08be
000001a0: 01ed b0bd 0f72 9dbe 3290 a8bd ee0a 39be
000001b0: b453 86be cbbf 933d 40d8 a6ba 8053 61bc
000001c0: b6b4 4f3e 2e6d 7e3e 163a 033d 559b b63e
000001d0: 2723 b6bd 46ab 773d 23af d4bc 11b2 833d
000001e0: 7691 5a3e 6251 9f3d b009 49be 7cfd 223e
000001f0: 3016 fcbd 8904 0d3e f31b d1bd 4b27 92bb
00000200: e875 8c3d feab 283e 065a e2bd b3a8 f43e
00000210: 40ef 823a 4a73 843d da1d a2bc 51ff cc3d
00000220: e7c4 00be 9b91 00be c6a3 8e3e 2d41 81be
00000230: 27f8 d4bd 4c69 513e e3f0 903d 0fcc 273e
00000240: 838a c43d 867b 75bd 1de6 2abd fdb8 99bd
00000250: 74eb 6fbd 8c3f 273e 2e88 f4bd e837 7cbe
00000260: 65ae 03be b18a 38bd 5292 023e 62af 3dbe
00000270: c971 31be 048e b63d 32c8 883e 2a53 c3be
00000280: 8039 d6ba ee9d aabd d0ad 543d 6485 c8bd
00000290: 6dbf aa3e 2462 673d 7637 7e3e 5fd7 623c
000002a0: 2aca b4be e2fc 633d 7d7e ac3d 52a1 ee3d
000002b0: 3739 d63d de06 de3d f185 57bd 9029 a8bb
000002c0: 6313 a5bd 4963 b3bd d026 143c 425c 1b3e
000002d0: 78d9 09bd ab81 d6bd c01b 26bb ac1d b83e
000002e0: c6b4 1e3e 11ff 943d cc44 0d3d 35db 14be
000002f0: 48d7 8b3d 37e3 1f3d 6df8 a63d 6d41 2cbe
00000300: 6439 97bc bd44 bbbc 0087 063a 6af9 8bbe
00000310: 6062 9f3d 2d78 643e 2b9f 45bd 9364 97bd
00000320: d210 e2bd b62c 5c3d 0635 d7be 1a72 1c3e
00000330: a00c 78bd d39a a63d 4f5c 2e3e 0eb2 123e
00000340: 7e36 9bbe 1064 283e 53a1 86bd 220e 7a3e
00000350: 2ee3 4abe d020 30be d507 9c3d be48 c5bd
00000360: 1821 bb3b d9b3 233d 5b6c a13d 5fa3 bfbd
00000370: 1303 50be 41ae d63d d098 83bc 52df e4bd
00000380: 6ed0 d33d d252 143e 28c4 f43d f469 28be
00000390: 47e5 2cbc 5052 71bd 6071 253d 323a 1b3e
000003a0: 6808 993c 8462 78be dc8e 123e b46a 8fbe
000003b0: 351a cbba 9413 22be 064e a5bd 3010 8bbe
000003c0: 4fcb a3bc 4313 b53e 0064 4dbd 6798 25be
000003d0: c07c 19bd 286c 113c 7424 7ebe 429d af3e
000003e0: 6e42 1abe 6bf8 9abd d072 f83b 206e ba3c
000003f0: 8926 d43d fd71 9dbc 183e d23c 7b1c 07be

layers.0.bias f4 [20]
-0.023081707 -0.016428418 0.1677191 -0.17763914 0.12123575 -0.035080824 -0.13447471 -0.07037252
0.10071553 0.17332965 -0.15601295 0.1223578 0.009974144 0.12263865 -0.07791093 -0.11177096
0.104238145 0.00838135 0.069463156 -0.12234687
00000000: d915 bdbc e494 86bc 8ebe 2b3e 09e7 35be
00000010: 734a f83d e9b0 0fbd bdb3 09be 781f 90bd
00000020: f243 ce3d 547d 313e dcc1 1fbe ba96 fa3d
00000030: 986a 233c f929 fb3d c48f 9fbd 2ce8 e4bd
00000040: cf7a d53d ee51 093c b342 8e3d ff90 fabd

layers.1.weight f4 [20, 20]
-0.09098089 0.030020101 0.04199622 0.278697 0.053604536 0.12058501 -0.06949671 -0.12215851
-0.059433006 -0.111260794 0.03219018 0.0026516062 0.1771938 0.28959414 -0.016733788 -0.026865892
-0.13285732 -0.38944894 0.06131947 0.26982898 -0.13332342 0.17082441 -0.19551 -0.0697943
-0.06092777 -0.11237907 -0.2002837 -0.0057231337 -0.26512 0.2063638 -0.014741145 -0.07828047
-0.17243257 0.1980319 -0.053099975 0.22906956 0.3988493 -0.1733166 0.20268792 -0.076807655
-0.0005737394 -0.084060006 0.02628085 -0.050738484 -0.1206732 0.21124738 -0.029198214 -0.2360611
-0.009243317 0.015745223 0.018312529 0.11701853 0.19595979 -0.29477778 -0.23541635 0.09604278
0.020545535 0.27910474 -0.10194529 0.011719748 0.024359751 0.15664509 0.03993931 0.14566268
-0.082117245 -0.1385945 0.022026181 0.11707574 -0.012075044 0.03386787 -0.16023783 0.18614283
0.1246747 0.015215732 -0.22326338 -0.08433806 -0.17195252 0.28258264 -0.399705 0.06489533
-0.09349557 0.20772827 -0.066073835 -0.09172266 0.22153589 -0.057336833 0.29222348 0.18720956
-0.1564427 -0.020444818 0.0016137362 0.23774865 0.20847017 0.02311574 0.14840212 -0.18846518
0.14316526 -0.10226218 -0.1375698 -0.19053012 0.28041443 -0.088044725 -0.045103624 -0.019846499
-0.25139397 -0.13766281 -0.26143098 0.1338992 0.26168028 0.11377916 -0.019876344 0.1741868
-0.04184991 0.31930783 0.04648345 0.18394466 0.5198457 0.17580843 0.15338483 0.08353616
0.14894514 -0.043981176 -0.10576042 0.24623832 -0.37511668 0.12182563 0.16929638 0.29132622
-0.21976002 0.097281314 0.02701404 0.124570735 0.13715175 0.20794444 0.056260984 -0.39414072
0.057988748 -0.003364101 -0.13698162 0.037215404 0.005303338 -0.10370405 0.1526857 -0.119642064
-0.091643415 0.13058636 -0.31424007 0.25642028 0.36941877 0.17886434 -0.12193342 -0.1385979
0.20902416 0.024142345 0.13928564 0.13189384 0.37819993 0.07362032 -0.2557598 0.20193261
0.22203638 0.09993658 -0.3065533 -0.111255996 -0.080045775 -0.16298041 0.32254475 0.32154638
0.12286978 0.21969518 -0.27525127 0.013949029 0.10192879 -0.014705583 0.1511156 0.29018328
0.25815785 0.09110976 0.17168273 0.24568594 0.14162335 0.06461999 -0.18762201 0.29396963
-0.023642614 -0.14392874 -0.28794232 0.114276044 0.10716694 -0.13350517 -0.068338186 -0.06826631
-0.05599349 -0.22890961 0.1612972 -0.009104535 -0.075733595 0.040387206 0.4053808 -0.21461818
-0.149033 0.0140621215 0.20049995 -0.3868564 0.10112022 0.075593 -0.077233575 0.2779045
0.06641204 0.017694764 0.31435397 0.20657527 0.23588836 -0.2375994 0.16100961 0.30682418
0.2590034 -0.089403965 0.2539721 0.06867554 0.08902817 -0.30506676 0.36016405 -0.1573159
0.007129602 0.028857253 0.10615939 -0.20165676 -0.10330481 0.016245097 -0.27341124 -0.19195575
0.21867442 -0.17172465 0.3862282 0.11374938 0.18194175 0.015702896 -0.24424216 -0.06145341
0.2085404 -0.16632411 -0.17266804 0.1260986 0.08230777 -0.42283222 -0.1940944 0.018973213
-0.074132584 0.23043415 0.19844815 0.15654333 -0.203742 0.3945819 0.1617271 0.021454185
00000000: 3054 babd b7ec f53c 3a04 2c3d 60b1 8e3e
00000010: 6e90 5b3d 46f5 f63d 4b54 8ebd 3e2e fabd
00000020: 0670 73bd b3dc e3bd dad9 033d 92c6 2d3b
00000030: 4b72 353e af45 943e 4c15 89bc dc15 dcbc
00000040: c00b 08be da65 c7be 202a 7b3d 0627 8a3e
00000050: ef85 08be 98ec 2e3e c633 48be 50f0 8ebd
00000060: 668f 79bd ff26 e6bd 2c17 4dbe 2089 bbbb
00000070: cfbd 87be 0851 533e d884 71bc 8351 a0bd
00000080: 2a92 30be e0c8 4a3e 5c7f 59bd 3691 6a3e
00000090: fa35 cc3e e879 31be 6c8d 4f3e 554d 9dbd
000000a0: 0067 16ba a727 acbd f04a d73c 28d3 4fbd
000000b0: 8323 f7bd 3c51 583e 1831 efbc 00ba 71be
000000c0: 4871 17bc 20fc 803c 2804 963c 69a7 ef3d
000000d0: afa9 483e 1ded 96be fc10 71be 14b2 c43d
000000e0: 1c4f a83c d1e6 8e3e b1c8 d0bd 3004 403c
000000f0: 1a8e c73c 9267 203e 6797 233d 9928 153e
00000100: 162d a8bd b7eb 0dbe 4070 b43c 68c5 ef3d
00000110: 68d6 45bc 09b9 0a3d 6315 24be 3a9c 3e3e
00000120: 7355 ff3d 684b 793c 289f 64be 6fb9 acbd
00000130: 5214 30be acae 903e 22a6 ccbe d8e7 843d
00000140: 9b7a bfbd b8b6 543e b851 87bd 17d9 bbbd
00000150: 4eda 623e 07da 6abd 519e 953e ddb3 3f3e
00000160: 8432 20be e47b a7bc 0084 d33a 6274 733e
00000170: 3479 553e 385d bd3c baf6 173e 04fd 40be
00000180: ea99 123e d56e d1bd 19df 0cbe 541a 43be
00000190: 7b92 8f3e cb50 b4bd 94be 38bd 2095 a2bc
000001a0: b6b6 80be 7bf7 0cbe 48da 85be df1c 093e
000001b0: f5fa 853e 0c05 e93d b7d3 a2bc 065e 323e
000001c0: d06a 2bbd 517c a33e 6e65 3e3d fd5b 3c3e
000001d0: 9c14 053f 2007 343e ea10 1d3e 0215 ab3d
000001e0: 1385 183e 9b25 34bd eb98 d8bd e625 7c3e
000001f0: 4b0f c0be b77f f93d 085c 2d3e b628 953e
00000200: c508 61be 6d3b c73d 8c4c dd3c f11e ff3d
00000210: 8271 0c3e 63ef 543e eb71 663d d0cc c9be
00000220: 9c85 6d3d 4078 5cbb e944 0cbe 2e6f 183d
00000230: a0c7 ad3b ca62 d4bd a459 1c3e e606 f5bd
00000240: 8baf bbbd 6eb8 053e 13e4 a0be 8549 833e
00000250: 7524 bd3e 3728 373e 3bb8 f9bd 9cec 0dbe
00000260: 6e0a 563e 2bc6 c53c e5a0 0e3e 2e0f 073e
00000270: 6ca3 c13e 40c6 963d f3f2 82be 6cc7 4e3e
00000280: 815d 633e 8dab cc3d 8ef4 9cbe 2fda e3bd
00000290: 0aef a3bd 56e4 26be 9624 a53e baa1 a43e
000002a0: 27a3 fb3d c6f7 603e bced 8cbe 788a 643c
000002b0: 0bc0 d03d b0ef 70bc 0cbe 1a3e e792 943e
000002c0: 442d 843e c197 ba3d 99cd 2f3e 1895 7b3e
000002d0: b605 113e 7c57 843d fc1f 40be 3083 963e
000002e0: 28ae c1bc 0e62 13be 2d6d 93be 8f09 ea3d
000002f0: 577a db3d 94b5 08be e4f4 8bbd 35cf 8bbd
00000300: 6e59 65bd 4867 6abe 182b 253e 302b 15bc
00000310: 371a 9bbd 0e6d 253d 128e cf3e dec4 5bbe
00000320: 1b9c 18be d064 663c dc4f 4d3e 0b12 c6be
00000330: 1e18 cf3d 81d0 9a3d a32c 9ebd 8049 8e3e
00000340: 0903 883d 9cf4 903c 01f3 a03e 7888 533e
00000350: b88c 713e 424d 73be b4df 243e 0f18 9d3e
00000360: 189c 843e 6d19 b7bd a208 823e c3a5 8c3d
00000370: 6754 b63d b631 9cbe 6c67 b83e 6b17 21be
00000380: 709f e93b 0c66 ec3c 186a d93d 1c7f 4ebe
00000390: 7991 d3bd 7014 853c 8ffc 8bbe 0c90 44be
000003a0: 30ec 5f3e 96d8 2fbe b4bf c53e 6ff5 e83d
000003b0: f04e 3a3e 5ca3 803c 9e1a 7abe 92b6 7bbd
000003c0: 9d8b 553e de50 2abe e4cf 30be fe1f 013e
000003d0: fa90 a83d 777d d8be afc0 46be b66d 9b3c
000003e0: d3d2 97bd eef6 6b3e fe35 4b3e e54c 203e
000003f0: bea1 50be a406 ca3e ca9b 253e b0c0 af3c

layers.1.bias f4 [20]
0.108082995 0.06059561 0.024422474 0.124304235 0.12105511 -0.020181343 -0.14041756 0.1268138
-0.16146807 0.086569756 0.15032046 0.014549488 -0.100015126 -0.06395205 0.033719502 0.050984386
-0.010140505 -0.12190035 -0.044259768 -0.15107572
00000000: 9e5a dd3d 1a33 783d a411 c83c 3893 fe3d
00000010: beeb f73d 5853 a5bc 9fc9 0fbe 7adb 013e
00000020: e357 25be 7c4b b13d 9bed 193e fa60 6e3c
00000030: bbd4 ccbd 4bf9 82bd 761d 0a3d 01d5 503d
00000040: 5c24 26bc e4a6 f9bd bb49 35bd 98b3 1abe

layers.2.weight f4 [20, 20]
-0.14193872 -0.45231664 -0.10441935 0.27285746 0.086812876 0.054079868 -0.32335356 0.034087665
0.09839604 -0.057011023 -0.07792159 0.18480764 -0.37477434 -0.2680296 0.007732721 -0.019668631
0.12282749 0.10280554 0.10601692 -0.15903632 0.057996355 -0.2543935 -0.28308904 -0.074208766
-0.03827206 0.023441404 0.15149963 0.006482128 0.058916576 0.20603353 0.06671505 0.15456522
0.3517241 -0.06698644 0.097295254 -0.15625677 -0.19801101 -0.062727824 -0.07043036 -0.14608958
-0.16927281 -0.1514658 -0.0925122 0.0074954927 -0.1019047 -0.11693279 -0.1803096 0.2443262
-0.15304883 -0.20671378 -0.24077776 -0.041704416 -0.12584937 -0.24355313 -0.12894896 0.26702517
-0.29148138 -0.2533318 -0.05518492 0.1375387 -0.05134047 0.12843336 0.102858216 0.082357936
0.21419671 -0.0059146583 -0.10543863 -0.064142756 0.14504325 0.22937983 0.1208439 -0.31376812
-0.39296466 -0.3256213 -0.19247115 0.08753847 -0.040751293 0.08960327 0.06718501 -0.07440827
-0.24476558 -0.31697476 0.1627062 0.012392744 -0.1793354 0.2058846 0.12185967 -0.16571231
0.30552468 -3.8224713e-05 0.10805947 -0.06982808 0.055945966 -0.02301617 0.13197908 -0.1789189
0.030833475 0.20989533 0.16102533 0.080074914 0.3438974 0.11739848 0.023862585 0.09613549
0.13500817 0.20509195 0.2304197 0.20973511 -0.15636803 -0.26752976 0.39294422 -0.29141957
0.2190436 0.24784726 -0.055091064 -0.008186899 0.28983513 0.04036497 -0.07272564 0.18337157
0.26808688 -0.09213865 0.40268856 0.025150917 0.18000016 0.1238187 0.10730117 -0.08250437
-0.24025583 -0.09483983 -0.27287698 0.14676583 -0.20072627 0.21318069 -0.16748993 -0.24980968
-0.0019768896 -0.1440353 -0.20574433 -0.07235556 0.16159523 0.14782554 -0.1012722 -0.2571927
-0.0907924 -0.0050328225 0.31721887 0.37566423 -0.09205109 -0.26121774 0.219105 -0.32727745
-0.11921664 0.24548739 -0.1834223 -0.40092465 0.21205693 -0.14033124 0.06573922 0.07170185
0.05237439 0.15415603 -0.30720904 -0.17455485 -0.31934512 0.32267198 0.054172754 0.22386527
0.17071998 0.14018142 -0.009799652 -0.35196692 -0.1849253 -0.11233271 0.07051158 -0.14959434
0.09126442 -0.12210049 -0.119587176 0.08879955 -0.07414942 0.02021461 0.029618636 -0.22405684
0.0603075 0.21893877 0.09933949 0.15049249 -0.0100611895 0.31405038 0.29954678 0.18028341
0.009010397 -0.356012 0.27226028 -0.32460544 0.083108544 -0.13859549 0.32063058 0.17027149
-0.10941135 0.31523886 0.1681771 -0.15384671 -0.05223971 0.34893805 0.017004177 -0.14982714
0.1669425 -0.4843433 -0.17586575 -0.16199863 0.17421132 -0.15350282 -0.09336101 0.31917948
-0.049893923 0.20568062 -0.24190387 -0.03988581 0.16183574 0.1848403 -0.053813066 -0.023184322
0.10988975 0.08154853 -0.14773788 0.11730744 0.27232233 0.39614287 0.122917235 0.10013392
-0.33169034 0.20373234 -0.17809217 -0.08120502 -0.11506184 0.00063723326 0.15666825 0.05369586
0.013414659 0.2284331 -0.26289222 -0.16093916 0.28601438 -0.15956435 0.1965205 0.15901193
0.026406132 0.32368517 0.14971639 0.22507927 0.0017546788 0.10376727 0.10726487 -0.08952454
00000000: 6258 11be 0c96 e7be d0d9 d5bd f9b3 8b3e
00000010: f3ca b13d da82 5d3d 998e a5be 829f 0b3d
00000020: dd83 c93d 6484 69bd 5b95 9fbd 373e 3d3e
00000030: 6ce2 bfbe 2d3b 89be c462 fd3b 1c20 a1bc
00000040: fb8c fb3d b68b d23d 661f d93d 6bda 22be
00000050: 968d 6d3d dd3f 82be 0cf1 90be c4fa 97bd
00000060: 2ac3 1cbd 3008 c03c b822 1b3e 0868 d43b
00000070: 8252 713d 74fa 523e e6a1 883d 5846 1e3e
00000080: 2e15 b43e 3030 89bd bc42 c73d c601 20be
00000090: 66c3 4abe 7277 80bd cb3d 90bd 8298 15be
000000a0: da55 2dbe da19 1bbe 0977 bdbd c09c f53b
000000b0: 69b3 d0bd 757a efbd 14a3 38be a630 7a3e
000000c0: d5b8 1cbe c7ac 53be 728e 76be 40d2 2abd
000000d0: a8de 00be fe65 79be 320b 04be 86b7 883e
000000e0: 0c3d 95be b5b4 81be 9509 62bd f2d6 0c3e
000000f0: 624a 52bd 0984 033e 54a7 d23d 47ab a83d
00000100: 6256 5b3e c0cf c1bb 35f0 d7bd 475d 83bd
00000110: 3886 143e 8ce2 6a3e 027d f73d 37a6 a0be
00000120: aa32 c9be d6b7 a6be 2817 45be 5f47 b33d
00000130: d4ea 26bd eb81 b73d 4b98 893d 5d63 98bd
00000140: d4a3 7abe 844a a2be 749c 263e f00a 4b3c
00000150: b3a3 37be 6ad3 523e 9091 f93d 7db0 29be
00000160: bb6d 9c3e 7953 20b8 494e dd3d 0602 8fbd
00000170: 9927 653d 688c bcbc 8625 073e 8436 37be
00000180: 7c96 fc3c cdee 563e d3e3 243e 51fe a33d
00000190: 5213 b03e 9d6e f03d 787b c33c afe2 c43d
000001a0: 953f 0a3e a003 523e 24f3 6b3e cdc4 563e
000001b0: f11e 20be a9f9 88be fc2f c93e f234 95be
000001c0: f74c 603e accb 7d3e 2ba7 61bd 5822 06bc
000001d0: 4565 943e bd55 253d 2ef1 94bd c2c5 3b3e
000001e0: af42 893e 30b3 bcbd 322d ce3e 4c09 ce3c
000001f0: f651 383e a994 fd3d b7c0 db3d 0df8 a8bd
00000200: a005 76be 633b c2bd 88b6 8bbe c849 163e
00000210: 308b 4dbe 0a4c 5a3e 7b82 2bbe 1cce 7fbe
00000220: b48e 01bb fd7d 13be a4ae 52be 272f 94bd
00000230: 3879 253e 945f 173e cd67 cfbd c3ae 83be
00000240: 5ef1 b9bd 60ea a4bb 836a a23e 1057 c03e
00000250: 4885 bcbd 55be 85be 105d 603e e990 a7be
00000260: db27 f4bd 0c61 7b3e 0ed3 3bbe ff45 cdbe
00000270: 7425 593e feb2 0fbe 49a2 863d 6bd8 923d
00000280: 8786 563d 14db 1d3e 814a 9dbe 82be 32be
00000290: 3481 a3be 4335 a53e 40e4 5d3d f03c 653e
000002a0: 38d1 2e3e b88b 0f3e b88e 20bc 0235 b4be
000002b0: 0f5d 3dbe b10e e6bd 6068 903d 422f 19be
000002c0: d7e8 ba3d d20f fabd 1fea f4bd 8adc b53d
000002d0: a7db 97bd 1c99 a53c c8a2 f23c 286f 65be
000002e0: ff04 773d 7c31 603e 8172 cb3d b41a 1a3e
000002f0: b0d7 24bc 36cb a03e 325e 993e 379c 383e
00000300: 58a0 133c 3447 b6be b365 8b3e af32 a6be
00000310: d034 aa3d faeb 0dbe b129 a43e a65b 2e3e
00000320: 0f13 e0bd fd66 a13e 9e36 2c3e fe89 1dbe
00000330: 4ef9 55bd 02a8 b23e 584c 8b3c 496c 19be
00000340: faf2 2a3e d8fb f7be 2716 34be f8e2 25be
00000350: 7464 323e d82f 1dbe 0f34 bfbd 7e6b a33e
00000360: 925d 4cbd f19d 523e a6b5 77be 4e5f 23bd
00000370: 45b8 253e c746 3d3e 176b 5cbd 0ced bdbc
00000380: e10d e13d ea02 a73d 9948 17be e23e f03d
00000390: d56d 8b3e 3dd3 ca3e 08bc fb3d 0313 cd3d
000003a0: 51d3 a9be 369f 503e cb5d 36be d14e a6bd
000003b0: 8ba5 ebbd 000c 273a a46d 203e 31f0 5b3d
000003c0: 28c9 5b3c 5eea 693e cf99 86be 3ccd 24be
000003d0: 7a70 923e d664 23be ac3c 493e 06d4 223e
000003e0: ac51 d83c 10ba a53e 414f 193e 2e7b 663e
000003f0: 40fd e53a ef83 d43d afad db3d a458 b7bd

layers.2.bias f4 [20]
0.05956021 -0.08920281 0.06159089 -0.21570468 -0.017905826 -0.11076861 -0.18541433 -0.031014984
0.041132163 -0.15607125 0.012590805 0.045370605 -0.11726502 0.21724121 0.074185185 -0.039352052
-0.18245664 -0.024263524 0.14643675 0.12644525
00000000: 68f5 733d f6af b6bd bb46 7c3d b0e1 5cbe
00000010: 3daf 92bc a7da e2bd 41dd 3dbe 2313 febc
00000020: 337a 283d 24d1 1fbe aa49 4e3c 87d6 393d
00000030: a528 f0bd 7b74 5e3e 67ee 973d 9e2f 21bd
00000040: ead5 3abe 4cc4 c6bc 84f3 153e dd7a 013e

layers.3.weight f4 [2, 20]
0.00312604 -0.28594062 0.0021579415 0.48024875 0.09974857 0.51396203 -0.1731062 -0.63888407
0.17630708 0.80064356 0.31502876 -0.10350942 -0.040865265 -0.111335985 -0.003239736 -0.21068108
-0.28507972 -0.38191956 -0.09848141 0.30756757 0.35659927 -0.75406224 0.16169167 0.115101
-0.28301102 0.19030195 0.42010486 -0.2473669 -0.21713942 0.34468022 1.1798644 0.5534018
0.12405007 -0.7627055 -0.7313319 0.23419878 -0.5778643 -0.30767417 0.8696251 0.27521703
00000000: 40de 4c3b cf66 92be 406c 0d3b 2ae3 f53e
00000010: fa48 cc3d 0493 033f c042 31be e88d 23bf
00000020: d889 343e faf6 4c3f 734b a13e bffc d3bd
00000030: 5662 27bd 1f04 e4bd c051 54bb c8bc 57be
00000040: f8f5 91be f68a c3be 9fb0 c9bd 7f79 9d3e
00000050: 2e94 b63e 390a 41bf 8092 253e 13ba eb3d
00000060: d2e6 90be 84de 423e fc17 d73e c04d 7dbe
00000070: cc59 5ebe ed79 b03e cc05 973f beab 0d3f
00000080: f70d fe3d ab40 43bf 9138 3bbf ced1 6f3e
00000090: eaee 13bf 7887 9dbe c09f 5e3f 3fe9 8c3e

layers.3.bias f4 [2]
-0.17376918 -0.21630718
00000000: 8cf0 31be a17f 5dbe
