notebooks/sa_model_params.pt (torch, 9248 bytes, 8 tensors)

layers.0.weight f4 [20, 30]
000000 fb eb 2e be 14 0e 2a be e4 a3 75 3e 92 de c2 3d
       -0.17082207 -0.16606933 0.239883 0.09515108
000010 58 8c ca bd 3d 37 e1 3d cf af e2 bd 64 06 9f 3d
       -0.0989005 0.10996864 -0.11068689 0.07764891
000020 7b 54 04 3e bd f9 57 3e 07 03 b9 3d 26 02 a7 bd
       0.12922852 0.21091361 0.090337805 -0.08154707
000030 1c 2c 65 3d c3 da 39 3d 05 c4 6a bd fc 1e 52 be
       0.05595027 0.045374643 -0.057315845 -0.20519632
000040 32 ed 42 be 59 ac 38 3e 38 95 2c 3d a6 8a 72 bd
       -0.19035795 0.18034495 0.042134494 -0.059214257
000050 36 1a 27 3e 42 f0 11 3e 36 92 05 bd 04 31 dc bc
       0.16318592 0.14251807 -0.03261014 -0.026878841
000060 a0 28 08 3e 10 79 b6 bc e9 8b bb 3e d4 2d 0f 3e
       0.13296747 -0.022274524 0.3663018 0.13982326
000070 d9 b2 d5 bd 9b 01 1e be 43 40 1d 3d a3 1a 94 be
       -0.10434503 -0.154303 0.038391363 -0.28926572
000080 5f b7 68 3d 54 c2 37 be fa 68 79 3d 25 bf 1d be
       0.0568155 -0.17945224 0.06089113 -0.15404947
000090 ec fc 6e be b2 3f 40 be 59 7b dd bd ac 13 26 3e
       -0.2333867 -0.18774298 -0.10814542 0.16218442
0000a0 68 b0 c1 bc 9d c8 1b 3e 52 13 aa 3d 1d fa c1 bd
       -0.023643687 0.15213247 0.08304466 -0.094715334
0000b0 f4 58 f5 bd cd 0e 94 3d d2 18 ad 3d 0e 39 7a be
       -0.11979857 0.072293855 0.08452 -0.24435827
0000c0 d7 5b 12 3e 8f 24 0c bd 55 f5 25 bd ac 66 17 3d
       0.14292847 -0.034214552 -0.04051717 0.03696315
0000d0 d8 a1 28 bc aa c5 34 be 8a fa 18 be 46 73 39 3d
       -0.010292493 -0.17653528 -0.14939323 0.04527595
0000e0 cf 24 51 be 38 43 1c 3e 1d 6b 9b bd fd 2f b2 bd
       -0.20424198 0.15260017 -0.075887896 -0.08700559
0000f0 30 94 30 bc d8 72 54 bc 60 88 41 3b 2d 51 17 be
       -0.010777518 -0.012966834 0.0029530749 -0.1477706
000100 41 c1 f6 3c 67 52 5e 3e 60 75 b8 3d 6b 36 8d 3b
       0.030121448 0.21711121 0.090067625 0.0043094656
000110 00 ba 9b b9 b5 6d 87 3d 52 18 2c 3e 5c e5 db 3d
       -0.00029702485 0.06612722 0.16806152 0.10737106
000120 38 ed f2 3d 5a 44 91 3e a4 f2 85 be b0 1a 33 bc
       0.11861652 0.2837246 -0.26161683 -0.010931656
000130 94 1b 7a 3e 34 89 82 3e 15 9c 1b be 78 e4 d0 bd
       0.24424583 0.25495303 -0.1519626 -0.10199827
000140 3e 61 3c be 24 b4 ff 3c fe 1e b4 bd 4f 78 5c 3e
       -0.1839647 0.031213827 -0.08794974 0.21530269
000150 99 08 1d 3d ec ea 30 be f9 30 68 3d 18 c7 9c 3c
       0.038338277 -0.17277116 0.05668733 0.019137904
000160 8b 75 f7 3c 7d 7a 17 be 63 df a6 3e e2 43 6b be
       0.030207416 -0.1479282 0.32592306 -0.22975114
000170 5e 54 55 3d 7c 49 b7 3d 1c c4 a4 bc 50 a2 20 be
       0.052082412 0.08949563 -0.020113043 -0.15686917
000180 d5 a8 44 bd 46 72 90 be 98 37 34 be a5 48 84 3d
       -0.048012573 -0.28212184 -0.17599332 0.06459168
000190 24 80 97 3c bf 8d 9f bd ac 71 c0 bc 74 c9 80 3d
       0.01849372 -0.07790708 -0.023491703 0.06288424
0001a0 9b ed a2 bd 08 05 07 3d 76 cf 6c 3d fd 87 27 be
       -0.07955476 0.032963783 0.057815038 -0.16360469
0001b0 07 37 97 3e ab 80 9b 3e 66 8b 43 3d 78 a4 97 be
       0.2953417 0.30371603 0.047740363 -0.29617667
0001c0 84 12 40 be a0 a6 38 3e ea cf 39 be ea 06 9d be
       -0.18757063 0.18032312 -0.18145719 -0.30669338
0001d0 8f 79 61 3d 58 77 ec 3c 6b d9 cf 39 13 03 ee 3d
       0.055047568 0.028865501 0.00039644106 0.1162168
0001e0 f7 53 fd 3d 50 a0 74 bd f0 86 65 3e 01 ca 17 3e
       0.12369531 -0.0597232 0.22414756 0.14823152
0001f0 88 1b 64 3d 44 44 37 be e6 a0 4d 3e 84 12 21 be
       0.05569032 -0.17897135 0.20080909 -0.1572972
000200 9f 85 25 be 0d 3f a3 bd bb b7 a9 bd 8b 92 99 bd
       -0.16164254 -0.0797101 -0.08286997 -0.07498654
000210 ce 56 6e be c9 c5 9c bd 9c 70 62 3e 50 e9 ff bd
       -0.23275301 -0.07654912 0.2211327 -0.12495673
000220 fc 22 d0 3d c0 f8 a2 3b 82 b9 39 3e b0 40 64 be
       0.10162923 0.004973501 0.18137172 -0.22290301
000230 72 fd 6f 3d 3f c3 16 3d ae 13 11 3e 89 ce 07 3e
       0.058591314 0.036807295 0.14167663 0.1326238
000240 80 ce 39 bc 48 b5 b8 3e b4 3e aa 3c fc 68 72 3e
       -0.011340737 0.36075807 0.020781852 0.23672861
000250 67 92 f0 3d e4 ed 38 3e 13 b1 88 be 85 86 b6 3d
       0.11746674 0.18059498 -0.26697597 0.08912376
000260 53 e7 03 3d b8 7d d1 bd 78 7a 20 bc b8 ec fb 3d
       0.03220303 -0.10229057 -0.009794824 0.1230101
000270 8c 0d d4 bc ac 6d 2d 3e 5b 71 34 be f0 2c 51 3d
       -0.025885366 0.16936368 -0.17621367 0.051068246
000280 c1 36 5c 3d 69 02 8e 3e fa 78 0e 3e 4c 30 1d 3e
       0.053763155 0.27736214 0.13913336 0.15350455
000290 c9 fc 8a 3e ae 38 2c bd 84 46 34 be ef f7 9b be
       0.27145985 -0.04204624 -0.17605025 -0.30462596
0002a0 ec 1a 09 3d 1a d7 67 bd 1c c4 2d 3e 40 8c 19 bb
       0.03347294 -0.05660162 0.16969341 -0.0023429543
0002b0 0e d0 4e 3d 12 fb 43 be 12 ec d8 bd 18 6e 4b 3c
       0.050491385 -0.19138744 -0.10591902 0.012416385
0002c0 8b 56 c3 be 20 4a 98 3c 9c a6 86 3d fa 75 09 be
       -0.38151965 0.018590033 0.06574747 -0.1342391
0002d0 7a d2 48 3e f6 fd 83 3e e0 b4 1b 3e 59 62 8c bd
       0.1961154 0.25779694 0.15205717 -0.06854696
0002e0 5c 06 91 3e 67 ab c5 bd 73 b0 95 3d 48 21 1c 3f
       0.28325164 -0.09651833 0.07309046 0.60988283
0002f0 c2 bd 85 be 43 c4 dc 3d 01 52 a7 3d 01 ee b9 3d
       -0.26121336 0.107796215 0.08169938 0.09078599
000300 f4 c5 79 3c db bc a3 3e fc ec 12 3e ba 33 08 bd
       0.01524495 0.31980023 0.14348215 -0.033252455
000310 55 b9 81 3d 74 85 d6 3c 04 a3 86 3e 0f 03 22 be
       0.063341774 0.026186682 0.26296246 -0.1582148
000320 c1 71 25 3e 7a 7f 0d be 7a 10 f6 3c e4 a6 bd 3d
       0.16156675 -0.1381816 0.030037154 0.092603475
000330 f8 14 ee 3d c4 6b 65 3d 70 ea 48 3d 4c 67 e0 bd
       0.11625093 0.056010976 0.049051702 -0.10957202
000340 56 81 08 bc e8 6c d7 3c d8 4b 85 be 5e c3 ed 3d
       -0.008331617 0.026297048 -0.26034427 0.11609529
000350 48 63 17 bc 10 1b 9e bd ea 51 37 3d c7 41 90 be
       -0.009239979 -0.077200055 0.044755854 -0.28175184
000360 62 64 7f be 0c aa aa bc 08 c5 da 3d 6a 60 53 bd
       -0.24940637 -0.020833038 0.10682112 -0.05160562
000370 72 ec c5 3d 74 2b 17 bd 94 92 20 3e 9c 36 b9 3e
       0.09664239 -0.036906675 0.15680915 0.36174476
000380 f2 9e 90 be 50 40 06 bc ea c1 6b be da 99 a2 3d
       -0.28246266 -0.008194044 -0.23023191 0.07939501
000390 3e 4c 58 bd e9 3c 12 3e c2 47 d9 3d 6a 9f 0e be
       -0.052807085 0.14281048 0.1060939 -0.13927999
0003a0 e8 b1 c9 bd 78 64 36 be 2c f2 10 be 9f 49 80 be
       -0.09848386 -0.17811763 -0.14154881 -0.25056168
0003b0 9d b0 e7 bd e2 09 f4 bd 1b a4 52 bd a4 eb b6 3d
       -0.11312983 -0.119159475 -0.051426034 0.08931664
0003c0 4a dc 2d 3e 26 54 99 3d 94 c7 dc bc 65 3a 80 be
       0.16978565 0.07486753 -0.026950635 -0.25044551
0003d0 1d f0 34 3e 91 07 de bd 0e 32 8d be e2 18 3d bd
       0.17669721 -0.10841287 -0.2757725 -0.04616631
0003e0 d5 f9 9f bd 1c 15 bd bc 1e 8f 58 be 3a de 58 be
       -0.078113236 -0.023081355 -0.21148345 -0.21178523
0003f0 9d d0 39 be 85 c5 2e 3e 49 c4 b6 bd 60 a9 7e 3e
       -0.18145986 0.17067535 -0.08924157 0.24869299

layers.0.bias f4 [20]
000000 c3 dc 2a 3e fd 65 23 3e cc 23 a3 bc d7 a2 8b bc
       0.16685776 0.15956874 -0.01991453 -0.017045422
000010 a9 7b 83 bd ff 06 a3 3d 71 e9 fa bd 67 2e a7 bc
       -0.06420071 0.07960319 -0.12251557 -0.020407869
000020 0f 35 12 3e c9 5f 54 bd 12 c2 b9 3d b2 f8 56 bd
       0.14278053 -0.05184916 0.09070219 -0.052483268
000030 b7 d7 b8 bd 0c 22 8f 3c 68 4e 5b 3d 6a bc f9 3d
       -0.09025519 0.01747229 0.05354157 0.1219414
000040 7b c5 43 bd ee 45 1c 3d ac 2f 02 be 2e 74 ae 3d
       -0.047795754 0.038152628 -0.12713498 0.08518253

layers.1.weight f4 [20, 20]
000000 0a ea b6 3d 1f d5 fc bd bd 33 8f 3d c0 3a 5d bb
       0.08931358 -0.12345337 0.0699229 -0.0033756942
000010 44 e9 cf bc 48 36 93 3c a8 1b fb 3c 9d 27 3b 3d
       -0.025379784 0.01797022 0.030652836 0.045692075
000020 e4 ed b3 bd 25 9e e9 3d 19 88 02 3e d6 9e a4 bd
       -0.087856084 0.11407117 0.1274723 -0.08038108
000030 4c 08 3f 3e bc 1e 57 bd 5e fe 7c 3c e8 57 68 be
       0.18655509 -0.052519545 0.015441505 -0.22689784
000040 35 33 ee 3d 7d 80 a8 3e 45 b4 a0 3e 00 0d 61 be
       0.11630861 0.3291053 0.31387535 -0.21977615
000050 c9 ec 90 be f2 bc 09 be dd 03 56 be 10 f7 3f be
       -0.28305653 -0.13450983 -0.20899911 -0.1874659
000060 a5 0a 84 be 34 3e ad bc ef 30 ac bd 6b 87 53 be
       -0.2578937 -0.021147825 -0.08407771 -0.20657127
000070 f9 ed 46 3e 07 bb dd bd 32 e7 2d be 72 d4 18 bd
       0.19426717 -0.10826688 -0.16982725 -0.03731198
000080 18 08 d1 3d 42 85 fb 3d c0 c3 08 3e 4c 72 3c be
       0.10206622 0.12281276 0.13355923 -0.18402976
000090 a7 96 be 3d a2 a1 ba 3e 98 3a e4 3c 0a b7 2a 3e
       0.093060784 0.3645144 0.02785997 0.16671386
0000a0 10 d1 da bc 96 71 19 3e 9a 7c 7f bd 7b 04 62 3e
       -0.026711017 0.14984736 -0.06237469 0.22072022
0000b0 ad 3b 74 3d e6 cb b1 3d 3d 6f d9 3d fb 59 43 3e
       0.059627224 0.08681469 0.1061692 0.19077294
0000c0 4d 26 c8 bd 22 34 31 be 9f 87 8b bb c6 82 67 3e
       -0.0977293 -0.17305043 -0.0042581107 0.2260848
0000d0 3c c6 a0 be b2 26 21 be 34 ca c2 bc 0d 14 50 be
       -0.3140124 -0.15737417 -0.023778059 -0.20320149
0000e0 db 9c a5 3c 50 b2 4a 3c cb eb 0a be d4 24 e8 bc
       0.020216396 0.012371615 -0.1356651 -0.028337874
0000f0 c4 77 1b bd 91 f4 0d be 50 61 12 bc 71 d4 b0 be
       -0.037956014 -0.13862826 -0.008934334 -0.3453708
000100 93 bd 58 be 07 82 12 3e f7 7c a9 3d 40 1e 99 3e
       -0.21166067 0.14307414 0.08275788 0.2990589
000110 9b 30 94 3e d9 61 9a be 3c fa 79 be e8 2c 59 3e
       0.28943333 -0.30152777 -0.24411863 0.21208537
000120 1d 7e f0 3d 58 ce 53 be 1d 79 dc bd 2c 35 dd bc
       0.11742804 -0.20684183 -0.10765288 -0.027002893
000130 3e aa 1b be 70 11 16 be a0 d8 ad bc 10 25 92 bd
       -0.15201661 -0.1465509 -0.021221459 -0.07135975
000140 e5 05 80 3d d2 39 4e be b5 e1 b2 bd f0 63 d9 bd
       0.06251124 -0.20139244 -0.087344564 -0.10614765
000150 b0 7a 0b bc ae ed 61 3e 89 13 65 3e 5e 8a 31 3e
       -0.008513138 0.22063324 0.22370733 0.17337939
000160 b2 17 43 3e 0e 6e 08 bd 62 28 6d bd a0 1b 69 3c
       0.19052008 -0.03330808 -0.05789984 0.014227778
000170 52 c7 8b be 00 84 1b be 28 fb 41 3d 70 e3 5d bd
       -0.27300507 -0.15187073 0.047358662 -0.05417198
000180 18 a5 7d bc 91 8b 8e 3d df d2 57 be 72 f3 a7 3e
       -0.015481256 0.06960214 -0.21076535 0.32802922
000190 8b 83 fb bd 7b 54 bf bd ee c8 48 bd 7a 62 66 bd
       -0.12280949 -0.09342285 -0.049019746 -0.05624626
0001a0 6f cc ac 3d cd 4d 8d bd 32 81 9c 3d 49 8a f2 bd
       0.0843743 -0.06899605 0.076418296 -0.11842782
0001b0 97 a0 a8 bd 49 0b eb 3d cb d0 c5 3d 78 2a bf 3e
       -0.08233755 0.11476762 0.09658965 0.3733709
0001c0 40 e7 be bd 52 f0 11 3e b2 6b f3 3d 34 ac a9 3e
       -0.09321451 0.14251831 0.118857756 0.33139193
0001d0 ba db 5f bd 7d 8f d5 3d 44 29 51 be 1c e1 07 3e
       -0.054652907 0.10427759 -0.20425898 0.13269466
0001e0 c8 2f a1 3e bc 6a 02 be d8 7d 39 3e aa 6d 38 3e
       0.31481767 -0.12736028 0.18114412 0.18010584
0001f0 c6 c6 5d bd ae 14 5f 3e a1 3e 5f be 44 0f 82 be
       -0.054144643 0.21785232 -0.21801235 -0.25402272
000200 e0 f3 51 be a3 ed 07 be c6 57 f8 bd 17 5a 5a 3e
       -0.20503187 -0.13274245 -0.121261165 0.21323429
000210 49 9a 34 be ed 8a d1 3d 6a 41 52 3d 10 2e 52 3e
       -0.1763698 0.10231576 0.051331915 0.20525384
000220 17 74 11 3e b3 5a ad 3d 03 1e c3 3d 87 9c 85 3e
       0.14204441 0.08464565 0.09527209 0.26095983
000230 2e 33 3c be 7b eb f8 bd fc 02 ce bc 2c a0 4d bc
       -0.18378899 -0.12154289 -0.025147907 -0.012550395
000240 d2 5b 1e be 92 3f 33 3e 74 f7 13 be c6 81 8c bd
       -0.15464714 0.17504719 -0.14449865 -0.0686069
000250 23 dd 0f 3f 8e 7a 49 be c8 59 0c be b0 35 45 be
       0.561968 -0.19675657 -0.13706124 -0.19258761
000260 3a 2c 84 3d a6 47 49 3e 8f 91 80 bd 5f 0d 4e 3e
       0.06453748 0.19656238 -0.06277763 0.20122288
000270 20 a7 b0 3b 00 c0 71 3b 60 d6 97 3d a0 50 13 bc
       0.0053910166 0.0036888123 0.07413936 -0.0089913905
000280 c0 1b 3a 3c 02 20 01 be d1 a9 a0 be 91 15 9f bd
       0.011359155 -0.12609866 -0.3137956 -0.07767785
000290 73 3c df be 02 08 06 3e d1 8d 84 be 96 3b 85 be
       -0.43600807 0.13088992 -0.25889447 -0.26022023
0002a0 90 ac c3 bc b7 33 dd bd 50 35 bc 3c 62 aa 55 be
       -0.023885995 -0.108008794 0.02297464 -0.20865777
0002b0 25 68 ab be 36 68 90 be 97 c2 92 be 8a 12 2a 3d
       -0.33477893 -0.28204507 -0.28664085 0.041521586
0002c0 ac 36 c0 bd 5d d5 cd be 53 e4 93 3e 41 ea 9b be
       -0.09385428 -0.40201846 0.28885135 -0.3045216
0002d0 db 11 f1 bd 77 18 07 be b9 6b 5a be 16 62 23 bd
       -0.11770984 -0.13192926 -0.21330155 -0.039888464
0002e0 12 31 32 be 56 b1 d1 bd b1 bd b3 3e 47 9f 7c bd
       -0.17401531 -0.10238902 0.3510566 -0.061675336
0002f0 e7 9e 76 3d a9 0f 48 be f6 2a 74 3e 31 c2 04 bd
       0.060210135 -0.19537224 0.23844513 -0.032411758
000300 fb 64 c7 bd b2 1c 81 3e 29 eb e1 bd 70 b7 a4 bd
       -0.09736057 0.25217205 -0.11031181 -0.080428004
000310 b1 91 88 3e 9f cc 85 bd a3 c2 b7 3d dc 03 8e 3d
       0.26673654 -0.06533169 0.08972671 0.0693433
000320 99 2a e5 3d ac da 01 3e 1e 8f 49 be b0 98 47 3e
       0.111897655 0.12681073 -0.19683501 0.1949184
000330 6a 7f 58 be ff 77 38 be ac 90 b3 bc d8 dd 68 3e
       -0.21142355 -0.18014525 -0.02191957 0.22740877
000340 0c 21 05 be 7a 03 2c 3d 40 05 05 3e bc d3 a4 be
       -0.13000888 0.041995503 0.12990284 -0.3219279
000350 78 9f 3b 3c 9b 48 b8 be 03 11 f7 bd 3f 35 d8 3d
       0.0114515945 -0.35992894 -0.120637916 0.10557031
000360 82 a1 9a 3e 07 e9 f9 3e 10 db 81 3d 14 58 80 bc
       0.30201346 0.48810598 0.06340611 -0.015666999
000370 52 59 04 3e 8d 09 b8 3d e8 48 69 be 90 61 78 be
       0.12924698 0.08986197 -0.22781718 -0.24255967
000380 5d 51 34 3e d8 7b 07 bc 3d c5 b3 3e 4d 0a e3 3d
       0.17609163 -0.008269273 0.35111418 0.11085949
000390 b3 14 9a 3e de da 7b 3e 10 86 95 3e 28 75 24 be
       0.30093917 0.2459521 0.29203844 -0.16060317
0003a0 5a 3a 50 be 78 71 b4 3e 33 d9 ab 3d 09 ee 4d be
       -0.2033476 0.3524282 0.08391037 -0.20110334
0003b0 f3 f6 76 3d 7b dc 96 3e 12 b9 6e 3e 92 1f 79 bd
       0.060294103 0.29465088 0.23312786 -0.060821123
0003c0 27 34 8a bd 2e 72 56 be ca 84 6a 3e f6 c9 50 3e
       -0.067482285 -0.20941994 0.22902218 0.20389542
0003d0 09 5e 39 be 86 3b 01 3e d8 a6 17 be 3c c0 ee 3d
       -0.18102278 0.12620363 -0.1480974 0.116577595
0003e0 16 10 97 3d 23 41 d9 bd 24 89 c6 bd b6 e1 cb 3d
       0.07376115 -0.10608127 -0.09694126 0.0995516
0003f0 fa ce 2b be 9f 45 c9 3e 91 2d 32 3e a7 cc 63 3a
       -0.16778174 0.3931093 0.17400195 0.00086898584

layers.1.bias f4 [20]
000000 62 a2 d8 3d aa 69 00 be 39 dd 42 bc 6a c0 09 3e
       0.10577847 -0.12540308 -0.011893564 0.13452306
000010 9d 57 fc bc d1 33 47 be 13 8c d5 bd dc 2c 88 bd
       -0.030803496 -0.1945336 -0.10427108 -0.06649181
000020 72 04 8b bd d5 ed a0 bd 8b 63 1e 3d ca 49 c6 bd
       -0.06787957 -0.07857863 0.03866915 -0.09682043
000030 b9 1a 26 3e c4 fa 58 3e 0b d7 48 3e e2 77 48 3d
       0.16221131 0.2118941 0.19613282 0.048942454
000040 b2 85 2c be 4b 8c 0a be 76 60 48 bd ab 03 0e 3d
       -0.16847876 -0.1353008 -0.048920117 0.034671467

layers.2.weight f4 [20, 20]
000000 fa a1 92 3e 74 e0 6e be ee ff 9b be c0 fb 00 be
       0.28639203 -0.2332781 -0.30468696 -0.12596035
000010 38 28 a1 bd 38 f7 4a be d0 22 73 3c 53 b5 d6 be
       -0.07868999 -0.19820869 0.014839843 -0.41935214
000020 9a cf 26 3e 34 f0 f9 3c 6d f0 b5 3e 9c 23 64 3e
       0.16290131 0.030510046 0.35534993 0.22279209
000030 8b 20 95 be 22 e2 52 bd 2d 8b af 3d cc 86 fa bc
       -0.2912639 -0.05148519 0.085714675 -0.030581854
000040 98 01 c4 3c 7b 1e ed bd ce 16 b5 3e 82 81 76 bd
       0.023926541 -0.11578079 0.3536896 -0.060182102
000050 e0 d0 0a be 47 91 ef bd 09 2a f3 3d 9b 33 e5 3e
       -0.13556242 -0.11697631 0.11873252 0.44765934
000060 ee c3 05 bd cb c9 1f 3e 8d 68 e2 be 8b c1 eb bd
       -0.032657556 0.15604322 -0.4422039 -0.11511525
000070 55 b8 ee 3d e8 56 c7 be dc b7 6f 3e aa 05 11 bd
       0.11656252 -0.38933492 0.2340998 -0.035405792
000080 23 32 40 3e 00 a0 3a 3b 4a d5 07 bd cf c9 dd bd
       0.18769126 0.0028476715 -0.033162393 -0.108295076
000090 db 94 97 bd bd bf ef 3e 4c dd 31 3e 73 2f b4 3d
       -0.07401439 0.46825972 0.17369574 0.08798113
0000a0 63 95 8b 3d 0e 5e 20 3d ea bf 5a 3e 1e 91 39 3e
       0.06815603 0.039152198 0.21362272 0.18121764
0000b0 4e 3b 27 3e 83 c6 cd 3e 07 dc 60 3e bb 20 af bd
       0.16331217 0.40190515 0.21958934 -0.08551165
0000c0 18 0a 54 3e 84 d1 39 bd b3 e6 ea 3d 62 d7 17 3e
       0.20706975 -0.045365825 0.11469784 0.14828256
0000d0 cc 82 d8 bc c0 b2 04 bb c0 fd 01 bb f4 e8 3d 3e
       -0.026429556 -0.0020248145 -0.0019835085 0.18545896
0000e0 ff a0 84 bd 60 38 83 3b 2b 4d e9 3d 98 39 06 bd
       -0.0647602 0.004004523 0.11391672 -0.03276977
0000f0 13 4a 1c be c0 6b bf 3c a5 68 14 3f 8b f0 33 3e
       -0.15262632 0.023366809 0.57972175 0.17572229
000100 5a c7 01 3e a0 0a 32 be 72 6c 53 3d 43 6b ec bc
       0.12673703 -0.17386866 0.051617093 -0.02885974
000110 12 0a 1a 3e d8 16 81 3e aa 2b 9d 3d 52 b6 cc 3d
       0.15042904 0.2521274 0.07674344 0.09995712
000120 21 d6 15 3f 8b 2f 45 3d 4c 2c cd bc 72 45 0f 3d
       0.5852986 0.048141044 -0.025045536 0.034978338
000130 d7 77 b6 3d 3c 07 c5 3d 70 e9 45 3e 4d 66 80 3e
       0.089095764 0.096205205 0.1932733 0.2507805
000140 4d 84 2e be 82 d5 54 3e 11 51 3d bd 76 05 81 bc
       -0.17042656 0.20784572 -0.04621989 -0.015749674
000150 84 5c 05 3d 35 88 e1 3e da 1d a5 3e ca 22 72 3e
       0.032558933 0.4404923 0.32249337 0.23646083
000160 96 d6 89 be dd 86 43 be d7 b4 ba 3d 06 04 63 bd
       -0.2692153 -0.19094415 0.09116524 -0.05542376
000170 5a 33 51 3e 14 82 ee 3c 13 b6 a7 bd 16 2a e3 3d
       0.20429745 0.02911476 -0.08189025 0.11092012
000180 0d af ac 3d 18 8a 8d 3e a9 16 51 be 85 f3 e2 3d
       0.08431826 0.2764442 -0.204188 0.11081604
000190 1a db 2b be 21 9e 2e be c9 de 4f 3e 02 36 52 be
       -0.167828 -0.17052509 0.2029983 -0.20528415
0001a0 3d 48 c7 3e ac 0d fe 3d 42 57 4b 3e 10 7c e2 bb
       0.389223 0.124049515 0.19857505 -0.006911762
0001b0 a2 36 4a 3e 30 d7 fe 3e c4 a5 76 3e c7 55 8d be
       0.19747403 0.4977355 0.24086672 -0.27604505
0001c0 ec 77 56 3e ca ad 7d 3e 1e e6 84 be c6 30 7f 3e
       0.20944184 0.24773327 -0.25956815 0.2492095
0001d0 c1 c2 c4 be de b7 0b 3d 50 07 c9 3b 74 c4 23 3e
       -0.38429835 0.034110896 0.006134905 0.1599291
0001e0 59 b4 9d be 30 7b 3e 3d 72 08 38 bd e8 06 b8 3c
       -0.30801657 0.0465042 -0.04492993 0.02246423
0001f0 6e 66 1c be eb bf 6f 3d f1 aa 9d 3e fe b4 54 3e
       -0.15273449 0.058532637 0.3079448 0.20772168
000200 54 99 bf 3d 98 41 c1 3e 9f e3 c9 3e f3 8f c8 3d
       0.09355417 0.37745357 0.39431474 0.09793081
000210 d8 54 00 3f ae 91 b8 bb 42 9a 4e 3e d7 1a 06 be
       0.5012946 -0.0056326007 0.20176032 -0.13096176
000220 1c 59 2c 3e b0 bd c6 3d c3 7b d7 bd ce ef 9f 3e
       0.16830868 0.09704149 -0.105216525 0.31237644
000230 5d b7 b9 bd cd fc 4e 3d 62 53 25 be 8a 18 87 3d
       -0.09068177 0.05053406 -0.1614509 0.06596477
000240 9d 49 c0 3d 22 e5 72 3e 92 86 c5 bd 58 c2 20 be
       0.093890406 0.2372022 -0.09644808 -0.15699136
000250 d8 f1 94 3e ce 22 55 3e 1e e1 70 3e 5a 93 7a 3d
       0.29090762 0.20814058 0.23523375 0.06117568
000260 3b e6 a7 bd f0 f3 6a bc 59 ab ae 3e 06 fb be 3e
       -0.0819821 -0.014340386 0.34115103 0.3730089
000270 28 90 ae 3c 30 e3 f5 3b c4 46 82 3e 3b 79 8d 3d
       0.021308973 0.0075038895 0.25444615 0.069078885
000280 71 66 99 bd 6e cc 60 be 07 bf 21 3e da d3 3b 3e
       -0.07490242 -0.21952984 0.15795527 0.18342534
000290 dd dc 86 bd b3 b9 be 3e 1a 78 99 3e 70 fa 51 bc
       -0.06585095 0.37251052 0.29974443 -0.012816057
0002a0 82 a5 01 3e 00 c9 90 3a 70 7b 61 be b6 06 5f be
       0.12660792 0.0011046231 -0.22019744 -0.21779904
0002b0 6c 21 d2 3d 55 c6 e5 3e 8c 2c 8c bd df 28 41 3d
       0.10260281 0.44877878 -0.06844434 0.04715812
0002c0 1c 2d 8f 3e d2 58 21 3e da 05 11 3e 8b 53 e6 bd
       0.27964103 0.15756539 0.14162388 -0.11246403
0002d0 0f 4b c1 bd 0a 11 cd 3e b9 e1 e8 3d d4 fb f6 bc
       -0.094381444 0.40052062 0.11371178 -0.030149378
0002e0 fe e4 70 3e 29 00 c7 3d 16 52 06 3e be 53 7b 3d
       0.23524854 0.097168274 0.13117251 0.06135916
0002f0 8a 68 31 be ca 97 18 3e 96 fa 8e be dc 22 1c bd
       -0.17325035 0.14901653 -0.27925557 -0.038119182
000300 90 60 34 bc 7e 21 34 3f af da db 3d 54 eb 7e be
       -0.01100935 0.70363605 0.1073507 -0.24894458
000310 81 43 ea be 0d f6 b7 3c 98 ac 74 bd b3 83 1c 3d
       -0.45754626 0.022456193 -0.05973491 0.038211536
000320 02 72 72 bd 7d 89 db bd 34 6a 1f 3e d8 c2 45 3e
       -0.059190758 -0.10719583 0.15567857 0.19312608
000330 84 ad c4 3c 31 fc ec 3d 0a 7e 6c 3e b2 99 31 bd
       0.02400852 0.11571539 0.23094955 -0.043359466
000340 1e 45 60 bd 2b 38 dd 3d 46 bb 34 be e3 4a a7 bd
       -0.054753415 0.10801729 -0.17649564 -0.081685804
000350 9f 4e ca 3e 18 9b b2 bc 50 66 02 be eb 9a 40 3e
       0.39513108 -0.02180247 -0.12734342 0.18809097
000360 2a b7 11 3e c7 7d f3 bd ab 5a 90 be 7d fb 7c 3d
       0.14230028 -0.118892245 -0.28194174 0.061763275
000370 37 fc b2 3e 14 47 9a be 67 5c e3 3d 44 01 80 be
       0.3495805 -0.30132353 0.11101609 -0.25000966
000380 4c 39 d5 3c c2 c5 87 3d 0c e4 f7 bc 02 5e 5e be
       0.026028298 0.06629516 -0.030260108 -0.21715549
000390 34 be e9 3d 66 ca 22 be 97 a2 c4 bd 26 56 18 be
       0.114132315 -0.15897521 -0.09601324 -0.14876613
0003a0 5a fe 43 3e a4 1c 96 3c de 2c 8a 3e 38 6c 03 3f
       0.19139996 0.018324204 0.26987356 0.51337004
0003b0 17 3a 93 bd de 0d a9 3d 94 6a 23 3e 00 4e 48 be
       -0.07188814 0.08254598 0.15958625 -0.19561005
0003c0 10 c4 4b be d8 5f c1 3c e5 d0 cb 3e 8e 1b 9b 3e
       -0.1989901 0.023605272 0.3980781 0.3029446
0003d0 38 34 99 bc a5 a6 47 3d 63 22 85 3e ef 7c f1 3d
       -0.018701658 0.04874291 0.26002797 0.11791407
0003e0 f1 0a f4 3d 32 ab 59 3d 20 8f 70 3b fa 05 ea bd
       0.119161494 0.05314178 0.0036706403 -0.11426921
0003f0 40 75 ce 3d dc e3 76 3e fc dd cb 3c 9b 2d ba bd
       0.100809574 0.24110359 0.024886124 -0.0909073

layers.2.bias f4 [20]
000000 74 85 f5 bd e8 96 cf 3d 68 86 93 bd 3a 6c 0b 3c
       -0.11988345 0.10136205 -0.0720337 0.00850969
000010 d9 a5 12 3e 5d 50 e8 3d 30 0f 63 be 4d 5a a3 bd
       0.14321078 0.11343453 -0.22173762 -0.07976208
000020 73 15 45 3e 7b db 31 3e f5 31 6b bd bb bd 34 3e
       0.19246463 0.17368881 -0.05742069 0.17650501
000030 59 f6 21 3d ab 1a 04 be 0d 00 41 3e 67 65 2b be
       0.039541576 -0.12900798 0.18847676 -0.167379
000040 7b 30 89 3d a2 a1 f9 3d 45 81 0b be 2d 9a 2b 3e
       0.066987 0.12189032 -0.13623531 0.16758032

layers.3.weight f4 [2, 20]
000000 cd 7b a0 3f 8d f0 69 bf 9f b5 60 3f a5 92 3d bf
       1.2537781 -0.91382676 0.8777713 -0.74051887
000010 5e f0 18 bf ed c3 ad bf 75 47 16 bf 45 08 82 3f
       -0.5974177 -1.3575417 -0.58702785 1.0158774
000020 00 d7 11 bf 27 d8 99 bf a0 90 47 bf 38 4f 73 3f
       -0.5696869 -1.201909 -0.77955055 0.95042753
000030 30 b7 a7 bf ae 50 04 bd 85 47 be bf 11 45 86 be
       -1.3102779 -0.032303505 -1.4865576 -0.26224568
000040 ff d4 7b 3f a9 38 91 3f f3 49 d9 be 5d 29 73 3f
       0.9837188 1.1345416 -0.4243923 0.9498499
000050 5d 7c 91 be b1 b4 94 3f 18 70 12 bf 97 79 9f 3f
       -0.28415194 1.1617643 -0.5720229 1.2458981
000060 84 1d dd 3f 30 d5 94 3e 03 d2 91 3f eb 56 8c bf
       1.7274632 0.290689 1.1392215 -1.0964025
000070 de 6d 12 3f 8b be be 3f 55 c3 99 3f a5 39 15 bf
       0.57198894 1.4901899 1.2012736 -0.58291084
000080 ae b4 b1 3e 58 89 be be 40 c1 99 3f 9f 72 98 3f
       0.3470816 -0.3721416 1.20121 1.190998
000090 fb 43 90 bf 38 6d 5b be 23 38 d7 3e 93 a6 d7 bf
       -1.1270746 -0.21428382 0.42035016 -1.684771

layers.3.bias f4 [2]
000000 9f e9 87 3d 49 11 32 3e
       0.066363566 0.17389406
